policy/hex4/legged_gym/model1.pt (torch, 856213 bytes, 8 tensors)

weight f4 [512, 85]
0.01782159 -0.004882546 0.009446952 -0.049046498 -0.06717306 -0.056002505 0.18346357 -0.030180106
0.05517894 -0.06501586 0.053003106 0.56668514 0.12035523 0.27454633 0.027084198 0.17486179
0.20911011 -0.02650072 -0.35063198 -0.04782034 0.41271916 0.14753185 0.14797041 -0.0046583074
0.07712332 -0.019139672 -0.22942846 0.22604863 -0.24290906 0.103689395 -0.08667904 -0.0686652
-0.08855133 -0.25877407 -0.051504955 0.16310963 -0.0386815 0.055053093 -0.011776505 0.114401735
-0.10118314 0.10564452 -0.13409345 -0.021855155 -0.1348754 -0.0035802624 -0.055971045 -0.06803891
-0.19907844 -0.17442232 0.09629427 -0.3282305 0.17344101 -0.13891041 0.1469417 -0.004456902
0.17995475 0.1362718 -0.24654308 -0.102677844 -0.05853584 0.021318635 0.009991965 -0.03752463
-0.1223751 0.044443756 -0.080931775 -0.093871444 0.048545618 0.055993155 0.020395882 -0.08310506
0.042626847 0.07178755 0.006925933 0.03771619 -0.026231213 0.07917763 0.026869448 -0.067622796
-0.03191842 -0.08188808 -0.04185724 0.010766502 -0.01360139 -0.02747724 0.0027658814 -0.007206532
0.035517406 -0.17850508 0.10289588 0.05818585 0.117267966 0.013759998 -0.0845929 -0.04946363
0.16226646 -0.15103212 -0.0075077685 0.24535653 -0.1104785 -0.06894163 0.09194894 -0.1752187
-0.052749045 -0.10677085 -0.11182624 0.15603735 -0.04643331 0.017943446 0.103665225 0.5047518
-0.010275277 -0.32139552 -0.29916343 -0.07503416 0.10939302 -0.100084245 -0.024085479 0.18114714
-0.15870307 -0.066006154 -0.007539482 0.059751645 0.010069087 0.062565446 0.09694869 -0.013691879
0.018963104 0.044643734 0.1052734 -0.16594762 -0.0113791535 -0.1068459 0.18065888 0.28377712
-0.015508016 0.02718677 0.04413592 -0.14545365 -0.07128106 -0.100855276 -0.07302729 -0.02890892
-0.034747586 -0.026919566 -0.05094682 -0.016714806 -0.025186552 -0.060894508 0.061971884 -0.01646495
0.0025778909 0.090532705 -0.0939847 0.03068758 0.02985937 -0.09878302 0.054936998 -0.09181973
0.07944648 -0.022224862 -0.08163086 -0.04812346 0.059115343 0.064049244 -0.029724726 0.10634369
-0.07492543 -0.03007287 -0.0073803407 0.014636191 0.022436518 -0.12064437 -0.041147392 0.11715682
-0.17250134 -0.12469942 -0.082377836 -0.12775157 -0.011550758 -0.47950858 -0.050431337 0.37611783
0.19258606 -0.11576052 -0.1657843 -0.060479574 -0.1245502 0.18832982 -0.47259822 -0.24083568
0.051166106 -0.05442118 0.12983826 -0.0524423 -0.2897934 0.22548047 -0.07873394 0.17360835
-0.05623439 -0.052395616 -0.09082216 -0.07907336 0.0005317333 0.08637144 -0.13893034 -0.08282648
0.15182881 -0.008283131 0.029313482 -0.083002575 0.0990698 0.039363384 0.15864214 0.24591944
0.08230304 0.10231636 -0.07378804 -0.15616994 -0.10229703 -0.18608013 0.10973202 -0.058739644
0.17430821 0.043405958 0.24059768 0.3462022 -0.19062763 0.17435065 0.069384046 -0.016569514
-0.009067197 0.08174996 -0.03491552 -0.004728378 -0.042314757 -0.0023775669 -0.04362381 0.0558451
-0.0089044515 -0.038005196 -0.040490676 -0.017660696 0.030584577 -0.047505356 -0.05947773 0.074006
-0.0007616087 0.0009757528 -0.059108604 -0.074298166 0.05080345 -0.052670717 8.739501e-06 -0.008639753
00000000: 95fe 913c c4fd 9fbb 63c7 1a3c fbe4 48bd
00000010: 0792 89bd e262 65bd e0dd 3b3e 453c f7bc
00000020: 5003 623d 0927 85bd c919 593d 4712 113f
00000030: ce7c f63d 5691 8c3e aedf dd3c f80e 333e
00000040: f620 563e 0a18 d9bc 0986 b3be 43df 43bd
00000050: ed4f d33e 9712 173e 8e85 173e b7a4 98bb
00000060: d5f2 9d3d cdca 9cbc 4bef 6abe 4b79 673e
00000070: 27bd 78be 1b5b d43d c884 b1bd 57a0 8cbd
00000080: 665a b5bd 097e 84be dcf6 52bd 3606 273e
00000090: 7e70 1ebd 5a7f 613d 3ef2 40bc 754b ea3d
000000a0: 1b39 cfbd 275c d83d cb4f 09be 9509 b3bc
000000b0: c71c 0abe d6a2 6abb e541 65bd fc57 8bbd
000000c0: 38db 4bbe c49b 32be ee35 c53d d40d a8be
000000d0: 859a 313e 883e 0ebe e377 163e 340b 92bb
000000e0: 0f46 383e d68a 0b3e ca75 7cbe c348 d2bd
000000f0: 47c3 6fbd 6ba4 ae3c 57b5 233c 6db3 19bd
00000100: cc9f fabd a80a 363d 8fbf a5bd ac3f c0bd
00000110: c5d7 463d 1459 653d 4415 a73c fc32 aabd
00000120: 7d99 2e3d 5a05 933d f0f2 e23b 4b7c 1a3d
00000130: d7e2 d6bc e227 a23d 511d dc3c d27d 8abd
00000140: e4bc 02bd f0b4 a7bd 7f72 2bbd fb65 303c
00000150: 5dd8 5ebc f317 e1bc ca43 353b c624 ecbb
00000160: b37a 113d 09ca 36be 13bb d23d 4954 6e3d
00000170: 302a f03d 9d71 613c 0b3f adbd 609a 4abd
00000180: 2e29 263e 2aa8 1abe ba03 f6bb be3e 7b3e
00000190: 8d42 e2bd 4531 8dbd ba4f bc3d 886c 33be
000001a0: 620f 58bd adaa dabd 2805 e5bd 41c8 1f3e
000001b0: db30 3ebd 22fe 923c 6f4e d43d 6a37 013f
000001c0: a359 28bc f48d a4be f32b 99be 82ab 99bd
000001d0: 7309 e03d f8f8 ccbd e94e c5bc a37e 393e
000001e0: 0f83 22be 3c2e 87bd c20d f7bb 24be 743d
000001f0: d0f8 243c 5022 803d 098d c63d e753 60bc
00000200: 8358 9b3c 59dc 363d 9599 d73d 2cee 29be
00000210: a16f 3abc 06d2 dabd a4fe 383e 3c4b 913e
00000220: 5515 7ebc cab6 de3c dec7 343d cdf1 14be
00000230: cefb 91bd 368d cebd 558f 95bd 66d2 ecbc
00000240: 7c53 0ebd 6c86 dcbc 9dad 50bd 7ded 88bc
00000250: 0754 cebc 856c 79bd 3bd6 7d3d 81e1 86bc
00000260: d5f1 283b 3669 b93d 0d7b c0bd 8564 fb3c
00000270: a39b f43c c14e cabd 9e05 613d fc0b bcbd
00000280: d6b4 a23d ea10 b6bc 152e a7bd 1b1d 45bd
00000290: ee22 723d 402c 833d 4581 f3bc b8ca d93d
000002a0: 8172 99bd 615b f6bc c9d6 f1bb a2cc 6f3c
000002b0: cacc b73c 6514 f7bd 2b8a 28bd eaef ef3d
000002c0: 31a4 30be 6962 ffbd b6b5 a8bd 4fd1 02be
000002d0: 643f 3dbc 2682 f5be 1791 4ebd 8492 c03e
000002e0: 4835 453e da13 edbd 5cc3 29be 6eb9 77bd
000002f0: 2d14 ffbd 88d9 403e 65f8 f1be a19d 76be
00000300: 8d93 513d bee8 5ebd 52f4 043e bdcd 56bd
00000310: cd5f 94be 5ae4 663e 433f a1bd 63c6 313e
00000320: 0856 66bd c99c 56bd f800 babd 37f1 a1bd
00000330: 0564 0b3a 82e3 b03d c143 0ebe eea0 a9bd
00000340: 0379 1b3e f8b5 07bc d422 f03c 41fd a9bd
00000350: 1be5 ca3d 803b 213d 1673 223e 4ed2 7b3e
00000360: 7f8e a83d 3d8b d13d 2f1e 97bd 03eb 1fbe
00000370: 1b81 d1bd ca8b 3ebe 2ebb e03d fb98 70bd
00000380: da7d 323e 72ca 313d 3d5f 763e 6a41 b13e
00000390: e433 43be fa88 323e 3919 8e3d cabc 87bc
000003a0: 958e 14bc 866c a73d 9403 0fbd 82f0 9abb
000003b0: 3d52 2dbd f4d0 1bbb e1ae 32bd d5bd 643d
000003c0: fae3 11bc 56ab 1bbd 8dd9 25bd 2aad 90bc
000003d0: 828c fa3c fa94 42bd ec9e 73bd 7590 973d
000003e0: b2a6 47ba a9c9 7f3a dd1b 72bd a329 98bd
000003f0: 4717 503d 40bd 57bd df9f 1237 c08d 0dbc

bias f4 [512]
0.07367532 0.053418893 -0.10373298 -0.09615008 0.002318054 -0.10498501 0.12743932 -0.0005252043
-0.0035250646 -0.08906144 0.084989496 0.046625108 -0.17424425 0.012076483 0.015345416 -0.13983482
-0.025475906 -0.01024267 -0.11216078 -0.15218332 -0.1175358 -0.18604225 -0.043450776 -0.100463666
0.057874404 0.056094117 -0.038467545 0.03685348 -0.037966404 -0.040782336 -0.044049542 -0.13116823
-0.07878306 -0.09409422 0.12285541 -0.039409976 0.027740125 0.0680493 0.054707453 0.042247765
0.10533604 0.028938225 0.06952054 0.07653359 -0.1097611 0.010930273 0.027386963 0.16580275
-0.0033604824 -0.0018525588 -0.06627227 0.13898379 -0.07133391 0.090422414 -0.14974913 0.0070789414
-0.037641227 0.019732373 -0.09234651 0.0009844687 -0.11473461 0.12546688 -0.10286006 -0.04607183
0.046023015 -0.04971683 0.027600441 0.02810964 0.016514527 0.015691599 -0.01840743 -0.094148405
0.03670952 0.13969429 -0.036581602 -0.02434686 0.02725838 0.08805206 0.03541025 -0.1165714
-0.08426924 -0.10001511 -0.07226961 0.0248969 -0.046577074 -0.04233577 -0.024642592 -0.03239314
-0.10044615 0.015727982 -0.104919 -0.079553746 0.13564914 0.028999398 0.06600623 -0.097810075
-0.071265414 0.050715446 0.06424735 -0.01129334 -0.048095137 -0.00048487054 -0.15829055 0.075949766
-0.07139056 -0.1005219 -0.03251762 -0.066196315 0.08745393 -0.0823638 -0.09647611 0.0013415435
0.07533187 -0.09392267 0.02008978 -0.0079787625 0.0068998626 0.007811352 -0.059112262 -0.10186591
0.038426407 -0.030180577 0.07912348 -0.028010553 0.019976879 -0.06611471 0.058615163 -0.00441453
-0.017692046 -0.058689203 0.0019724246 -0.044288862 -0.12580183 -0.050720323 0.06003727 0.07257041
-0.09706533 -0.10172709 -0.054855835 -0.072098985 -0.11144304 0.08190643 -0.123228654 -0.014087069
0.008561627 -0.042587586 0.14172459 -0.08353168 0.1277542 0.023089431 0.06738399 -0.094111905
-0.036757406 -0.055055715 -0.07872776 -0.1310637 -0.0011342504 -0.04767572 0.12558153 -0.011277003
-0.1118416 -0.08455241 -0.030438261 -0.03987107 0.09313574 -0.027488159 -0.0024153094 0.03138738
0.043592922 -0.025745299 0.06155322 0.06725646 -0.026850218 -0.048713356 0.0053982125 0.11254477
0.10763617 0.0016217823 -0.08849377 0.04070314 0.119081356 -0.106116764 -0.08621671 -0.055247486
0.088551685 -0.019230893 -0.07883582 0.0388079 -0.024041671 -0.054772537 -0.03586961 -0.034802347
-0.090147644 -0.04648588 0.027418088 0.041501176 -0.06773219 0.11493322 -0.037786577 0.11194653
0.082347006 0.037586465 -0.1266831 0.019015407 -0.020005992 0.104133725 0.1111434 0.17340899
-0.09070091 0.0022794586 -0.05558299 -0.039430033 -0.034753967 -0.0053664236 -0.08896836 0.07114803
-0.06349373 -0.07221582 0.008085071 -0.14787987 0.100585215 -0.095656715 -0.006395038 0.10306612
-0.041835964 0.060204934 -0.006784205 -0.14089702 -0.17087111 -0.021291807 -0.055951353 -0.017029313
0.13350771 0.014629347 0.09517992 0.10610694 -0.05061103 0.06788907 -0.12195984 -0.08456966
0.0006043434 -0.13155788 -0.012493517 0.046450313 -0.04083423 0.092426695 0.07533635 -0.08731378
0.0740062 -0.004740592 0.084383965 0.10197546 0.045416214 0.0064187483 -0.059154246 0.045969114
00000000: 16e3 963d c5cd 5a3d f571 d4bd 55ea c4bd
00000010: 7eea 173b 6202 d7bd 747f 023e ddad 09ba
00000020: c504 67bb d865 b6bd f90e ae3d f8f9 3e3d
00000030: 166d 32be 71dc 453c 576b 7b3c dc30 0fbe
00000040: d9b2 d0bc dfd0 27bc 8db4 e5bd f2d5 1bbe
00000050: 9cb6 f0bd dc81 3ebe 71f9 31bd e5bf cdbd
00000060: b60d 6d3d f2c2 653d 2590 1dbd adf3 163d
00000070: a982 1bbd 610b 27bd 4b6d 34bd f750 06be
00000080: 0359 a1bd 78b4 c0bd 9e9b fb3d 5b6c 21bd
00000090: 423f e33c 6e5d 8b3d ec14 603d fe0b 2d3d
000000a0: 6cba d73d db0f ed3c c960 8e3d a5bd 9c3d
000000b0: 6dca e0bd e314 333c a05a e03c 32c8 293e
000000c0: 8a3b 5cbb 8fd1 f2ba c2b9 87bd c451 0e3e
000000d0: 8317 92bd 632f b93d d657 19be 77f6 e73b
000000e0: b02d 1abd c9a5 a13c 2b20 bdbd 4a09 813a
000000f0: fbf9 eabd 647a 003e 4ca8 d2bd d1b5 3cbd
00000100: a182 3c3d e0a3 4bbd 521a e23c 3046 e63c
00000110: 7949 873c ab8b 803c 2ecb 96bc e1d0 c0bd
00000120: b95c 163d 050c 0f3e 97d6 15bd 1173 c7bc
00000130: f74c df3c a354 b43d 570a 113d fcbc eebd
00000140: 5a95 acbd b9d4 ccbd 1702 94bd 95f4 cb3c
00000150: 9ac7 3ebd 4668 2dbd 43df c9bc abae 04bd
00000160: b6b6 cdbd f8d7 803c c6df d6bd 13ed a2bd
00000170: 9ce7 0a3e 2590 ed3c 462e 873d a650 c8bd
00000180: 9af3 91bd 00bb 4f3d 1d94 833d b307 39bc
00000190: 68ff 44bd 3936 feb9 eb16 22be 8d8b 9b3d
000001a0: 3735 92bd 6dde cdbd 3231 05bd ef91 87bd
000001b0: 0c1b b33d 5aae a8bd 4495 c5bd bbd6 af3a
000001c0: 9847 9a3d 875a c0bd 5393 a43c 5bb9 02bc
000001d0: 3e18 e23b 5ff6 ff3b b31f 72bd 139f d0bd
000001e0: 0265 1d3d 423d f7bc 7e0b a23d 6376 e5bc
000001f0: 8da6 a33c 2667 87bd 7416 703d c3a7 90bb
00000200: e9ee 90bc 1764 70bd cb43 013b 3d68 35bd
00000210: 32d2 00be 1dc0 4fbd a4e9 753d cc9f 943d
00000220: 30ca c6bd 4b56 d0bd 83b0 60bd a2a8 93bd
00000230: 403c e4bd 8fbe a73d 4e5f fcbd 73cd 66bc
00000240: 1146 0c3c 5270 2ebd 4020 113e a812 abbd
00000250: ffd1 023e 0c26 bd3c 9e00 8a3d bebd c0bd
00000260: ef8e 16bd 1a82 61bd 053c a1bd 9035 06be
00000270: 21ab 94ba 9e47 43bd 7298 003e 2ec3 38bc
00000280: 350d e5bd d029 adbd a959 f9bc d94f 23bd
00000290: f3bd be3d d92e e1bc 2b4a 1ebb 0e90 003d
000002a0: 7e8e 323d cee7 d2bc 3b1f 7c3d c1bd 893d
000002b0: fdf4 dbbc a887 47bd 7de3 b03b df7d e63d
000002c0: 5a70 dc3d fc91 d43a 393c b5bd 56b8 263d
000002d0: ede0 f33d bf53 d9bd 6392 b0bd 304b 62bd
000002e0: 965a b53d 1b8a 9dbc ad74 a1bd 08f5 1e3d
000002f0: 0af3 c4bc 2b59 60bd 03ec 12bd e88c 0ebd
00000300: 549f b8bd fa67 3ebd e69b e03c 23fd 293d
00000310: 2db7 8abd 1c62 eb3d 19c6 1abd 3944 e53d
00000320: 8ca5 a83d 44f4 193d 37b9 01be 33c6 9b3c
00000330: 9be3 a3bc 1044 d53d 279f e33d 2092 313e
00000340: 66c1 b9bd f862 153b fdaa 63bd 6381 21bd
00000350: 2d5a 0ebd d3d8 afbb 0b35 b6bd 0fb6 913d
00000360: 0009 82bd e3e5 93bd 3f77 043c d26d 17be
00000370: 9fff cd3d abe7 c3bd 788d d1bb 5414 d33d
00000380: 305c 2bbd 7399 763d 094e debb 4f47 10be
00000390: d6f8 2ebe 286c aebc 3f2d 65bd 0f81 8bbc
000003a0: 3fb6 083e eeaf 6f3c b1ed c23d 984e d93d
000003b0: 834d 4fbd 6d09 8b3d 15c6 f9bd dc32 adbd
000003c0: cd6c 1e3a 1cb7 06be 9cb1 4cbc af42 3e3d
000003d0: cb41 27bd 354a bd3d f249 9a3d 91d1 b2bd
000003e0: 9090 973d f856 9bbb 80d1 ac3d 83d8 d03d
000003f0: 5a06 3a3d 5d54 d23b b94b 72bd 1c4a 3c3d

weight f4 [256, 512]
-0.053526305 -0.006741006 0.022698842 0.098625526 0.051452894 0.023464758 -0.042028856 0.048890654
0.016967682 -0.06332569 0.012425042 0.12682834 -0.025581887 0.03644024 -0.09652718 -0.08190835
0.056336388 -0.016011935 0.06043659 0.0387511 -0.00019945213 0.06512361 0.041085288 0.04937374
0.026393669 -0.08966506 0.1147855 -0.002648871 0.058017835 0.0690848 0.083235644 0.008900164
-0.03300537 0.011367175 0.04258213 -0.055536006 0.060978726 -0.039607164 0.10998252 -0.10460488
-0.1154949 0.090969145 0.08009845 -0.06890112 0.021988306 0.04463305 -0.031983696 -0.099172615
0.14176662 0.09429409 0.06364829 -0.10822837 0.0693902 -0.103296645 0.057004426 0.0508502
-0.019036902 -0.015300817 0.042633604 -0.042508364 0.03388558 -0.09037752 -0.042838402 0.056513213
-0.0014183411 -0.020929853 -0.00813821 -0.0022908875 -0.05614903 0.02125395 0.035128534 -0.001214901
0.0051965066 0.012172753 0.09332061 -0.03300882 0.032052804 -0.025620123 0.08611156 -0.038279634
0.0021342894 -0.11341623 0.047834624 -0.086178094 -0.009614875 0.14851452 0.020811489 -0.0017671006
0.027444234 0.005940339 0.10216728 -0.021817058 -0.07703307 0.08351456 -0.012301868 -0.038707513
-0.07477278 0.06257118 -0.019086018 -0.008298371 0.0080560045 -0.054921962 -0.05326497 0.073645875
0.048180368 0.049381495 -0.02372254 -0.013565819 0.020677688 -0.043027744 -0.17323546 -0.0393437
-0.048514694 0.013099417 -0.0129761845 0.04348161 0.02918176 0.060574606 0.1041777 -0.04509572
0.04804944 0.0659386 -0.05453077 -0.049719684 0.15214175 0.05069569 -0.01032197 -0.026759647
-0.043607622 -0.1012642 0.072268695 -0.04667864 0.08431323 0.08223038 -0.021885857 -0.10264885
-0.033969387 0.07662068 0.035613563 0.08551524 0.046455696 -0.007299082 0.07805626 -0.03294844
0.10019511 -0.08651099 -0.0144245885 0.072358415 -0.018817134 0.07546073 -0.003505577 0.021026619
-0.040706787 -0.0027573837 0.025714345 -0.021380736 0.05379956 -0.059166744 -0.05906895 0.07600808
-0.0822808 0.014937922 0.02823052 0.04027119 0.08972469 0.019805988 -0.05722596 -0.10709406
0.03508369 0.060649697 0.0046497146 0.05184039 -0.0750327 8.587212e-06 0.03425101 -0.025114736
-0.025367657 0.057116285 -0.027447922 0.018167607 -0.014880956 0.041629348 0.010069129 0.031458806
0.0036204844 0.014767739 0.022077397 -0.07201744 0.024529329 0.048856113 -0.0101535525 -0.08816991
-0.032630626 0.07069189 -0.07181225 0.051457882 0.04248031 0.055185374 -0.029969068 -0.033862665
0.0049531944 0.07149029 -0.011233864 -0.016714683 0.11667794 0.03443776 -0.03783024 0.024141777
0.023399351 0.03767438 0.013952195 -0.012190948 -0.025937574 -0.026122754 0.017302247 0.011857375
-0.0037804015 0.05522068 0.007009803 -0.01724876 0.03735885 0.03680812 0.111205176 0.0018370508
0.05273347 0.009833187 0.05501987 -0.0061831637 0.00056080025 0.06842791 0.0018749359 0.026672477
-0.085932255 -0.04257224 -0.14737938 -0.0366287 -0.053495713 -0.009536657 -0.044267315 -0.0019169723
-0.03064941 0.012498235 -0.020182708 -0.009517214 -0.015593328 -0.07539783 -0.062423114 0.012694327
-0.055995416 0.03160412 0.022207253 -0.06867524 -0.04774804 -0.00445377 0.02567357 0.02063108
00000000: 663e 5bbd a8e3 dcbb ecf2 b93c 2efc c93d
00000010: 45c0 523d 2a39 c03c 7326 2cbd 9141 483d
00000020: cfff 8a3c e6b0 81bd 6792 4b3c 4adf 013e
00000030: 1b91 d1bc 5c42 153d 0bb0 c5bd 91bf a7bd
00000040: fcc0 663d 762b 83bc 5c8c 773d 79b9 1e3d
00000050: 0624 51b9 875f 853d 0c49 283d 1e3c 4a3d
00000060: 8937 d83c 51a2 b7bd a914 eb3d ae98 2dbb
00000070: 1ca4 6d3d 557c 8d3d 7377 aa3d fed1 113c
00000080: a430 07bd 633d 3a3c 996a 2e3d b979 63bd
00000090: d4c4 793d 1f3b 22bd 843e e13d 153b d6bd
000000a0: 9788 ecbd 084e ba3d a80a a43d 081c 8dbd
000000b0: d220 b43c 25d1 363d 5601 03bd 031b cbbd
000000c0: 452b 113e 431d c13d 095a 823d d6a6 ddbd
000000d0: 731c 8e3d 318d d3bd 797d 693d 4d48 503d
000000e0: 47f3 9bbc 47b0 7abc 93a0 2e3d 401d 2ebd
000000f0: 9bcb 0a3d d917 b9bd 5277 2fbd 667a 673d
00000100: a1e7 b9ba 1575 abbc 2056 05bc b722 16bb
00000110: 86fc 65bd c41c ae3c f0e2 0f3d 503d 9fba
00000120: 7547 aa3b 3a70 473c e01e bf3d 4234 07bd
00000130: cd49 033d 4be1 d1bc 425b b03d 1bcb 1cbd
00000140: 6fdf 0b3b c546 e8bd 3dee 433d 247e b0bd
00000150: b587 1dbc 3114 183e db7c aa3c 0f9e e7ba
00000160: bbd2 e03c 2da7 c23b 143d d13d b0b9 b2bc
00000170: 84c3 9dbd ae09 ab3d c68d 49bc c58b 1ebd
00000180: 7922 99bd 5225 803d 485a 9cbc e4f5 07bc
00000190: 55fd 033c daf5 60bd 5f2c 5abd a6d3 963d
000001a0: c758 453d 4044 4a3d c655 c2bc 2b43 5ebc
000001b0: 4164 a93c dc3d 30bd a364 31be dc26 21bd
000001c0: 58b7 46bd f09e 563c 109a 54bc c619 323d
000001d0: 960e ef3c 141d 783d 1e5b d53d 4ab6 38bd
000001e0: 7dcf 443d d10a 873d a85b 5fbd dea6 4bbd
000001f0: 0ccb 1b3e 49a6 4f3d 7b1d 29bc 0c37 dbbc
00000200: e89d 32bd 9b63 cfbd 9c01 943d 1a32 3fbd
00000210: 6aac ac3d 6768 a83d f849 b3bc 8f39 d2bd
00000220: 7c23 0bbd 4eeb 9c3d 87df 113d 9d22 af3d
00000230: 5448 3e3d 232d efbb f6db 9f3d f2f4 06bd
00000240: 1833 cd3d ad2c b1bd 1c55 6cbc a630 943d
00000250: 6426 9abc 288b 9a3d d3bd 65bb 0440 ac3c
00000260: 29bc 26bd 39b5 34bb e4a6 d23c a726 afbc
00000270: ed5c 5c3d d458 72bd 49f2 71bd 20aa 9b3d
00000280: d682 a8bd 30be 743c b143 e73c 67f3 243d
00000290: 94c1 b73d 2b40 a23c c565 6abd 2154 dbbd
000002a0: eab3 0f3d d16b 783d a25c 983b 9756 543d
000002b0: bfaa 99bd cb11 1037 c94a 0c3d 6bbd cdbc
000002c0: d5cf cfbc c4f2 693d 77da e0bc 3cd4 943c
000002d0: 41cf 73bc 8983 2a3d fdf8 243c f3da 003d
000002e0: a645 6d3b 63f4 713c a8db b43c e17d 93bd
000002f0: bbf1 c83c 591d 483d 165b 26bc 6d92 b4bd
00000300: b1a7 05bd e9c6 903d 4d12 93bd 80c5 523d
00000310: d5ff 2d3d 0f0a 623d b181 f5bc 94b3 0abd
00000320: 684e a23b 8069 923d 3e0e 38bc 3bed 88bc
00000330: d8f4 ee3d 9c0e 0d3d e2f3 1abd fac4 c53c
00000340: ffaf bf3c 7350 1a3d bf97 643c 8bbc 47bc
00000350: 097b d4bc 63ff d5bc 71bd 8d3c 6f45 423c
00000360: 9dc0 77bb 142f 623d 7db2 e53b 464d 8dbc
00000370: 9805 193d 1cc4 163d 8abf e33d 32c9 f03a
00000380: 0dff 573d 601b 213c 845c 613d 239c cabb
00000390: ab02 133a ef23 8c3d 69c0 f53a 3d80 da3c
000003a0: 40fd afbd 3b60 2ebd 9fea 16be fa07 16bd
000003b0: 521e 5bbd a33f 1cbc a551 35bd eb42 fbba
000003c0: 7914 fbbc 66c5 4c3c 3556 a5bc 17ee 1bbc
000003d0: 287b 7fbc 2d6a 9abd 61af 7fbd defb 4f3c
000003e0: 735b 65bd 5273 013d fceb b53c 9ba5 8cbd
000003f0: 7393 43bd eef0 91bb 6151 d23c 8302 a93c

bias f4 [256]
-0.04090896 -0.038127556 -0.077725895 -0.0974369 0.014943414 -0.04876046 -0.007879471 0.011954325
0.0035507502 0.0070293467 0.012923497 -0.120793544 -0.096186 0.01440825 -0.09364279 0.004984445
-0.03589349 -0.08167998 0.031165853 -0.07269082 0.017543456 -0.030635558 -0.015581423 0.006186768
-0.060584392 -0.09751139 -0.034417685 -0.044516984 -0.077383 -0.02424746 -0.013616849 -0.04839094
-0.10364472 0.12347455 0.003654582 -0.011018696 -0.017641159 0.0031836329 -0.093650475 -0.025388036
0.03581454 -0.032261275 -0.06300447 -0.054339677 -0.03434779 0.012859811 -0.053351074 -0.051781185
-0.083532445 -0.033837907 -0.038384218 -0.07459821 -0.018392537 0.020411443 -0.007501768 0.03764143
0.0087052025 -0.023937473 -0.019538622 0.033621818 -0.06261343 -0.022092251 -0.007394408 -0.11208235
0.00033914475 -0.030122299 -0.028270237 -0.04690814 -0.004277669 -0.10134054 -0.00504975 0.018072003
-0.104634956 -0.059492357 -0.019563572 0.039208215 -0.0151382405 -0.075209886 -0.108096875 -0.083295435
-0.030146882 -0.018185653 -0.012309263 -0.05922257 -0.06443664 -0.06685376 -0.06710865 -0.07651666
0.025892183 -0.00512026 -0.011322001 0.017059203 -0.046636313 0.034370333 -0.0063047386 -0.07627605
0.05179566 -8.043609e-05 -0.08329083 -0.07731882 -0.012930479 -0.05446919 -0.005379814 0.0013380368
-0.06878104 -0.08322508 -0.0073988484 -0.045237012 -0.0013764055 -0.0018394109 -0.0121007925 -0.08369952
-0.004691818 -0.05708092 -0.07876797 -0.07213637 -0.033551462 -0.044962533 -0.011403497 -0.034708034
0.02621631 0.026089463 -0.059020326 0.013305749 -0.019098138 -0.10075107 0.006365998 0.043595385
-0.047174197 -0.06241386 -0.0782534 -0.061291672 -0.04383578 -0.033315126 -0.029352328 -0.01703517
-0.029014098 -0.058744565 -0.03483569 -0.0789067 -0.058260076 -0.033142347 -0.05986692 -0.029339189
-0.04779296 -0.07270881 -0.042987242 -0.039975803 -0.019825941 -0.02603205 0.016233815 -0.012145424
-0.10319997 -0.0181944 0.0023786402 -0.032568417 -0.046817657 -0.07408432 -0.012284328 0.04275644
-0.020459563 -0.07297443 -0.0572618 0.0025444825 -0.0061186156 -0.051416475 0.0015848454 0.03156188
-0.019885164 0.011000066 -0.08322566 0.005740979 0.025313165 0.007723279 -0.049019203 0.041014764
-0.019743832 -0.096447766 -0.01669067 -0.09255342 -0.061450213 -0.042185523 0.03482331 -0.041022293
-0.0050052353 0.10931969 -0.005130153 0.007745548 -0.0059341346 -0.061184466 -0.024592025 -0.034328066
-0.032102533 -0.055812415 -0.069056794 0.0060504023 -0.07351183 -0.050834157 0.000617837 -0.01437851
-0.054729704 0.0062597306 -0.051228702 -0.10351416 -0.005022114 -0.0904191 -0.014254649 0.042805612
-0.036266748 -0.0769239 -0.017231211 0.005527352 0.014822416 0.03439164 -0.027275288 -0.10109669
-0.08821352 -0.059279446 -0.03797384 -0.021560483 -0.023677638 -0.058186892 -0.025127653 -0.041622065
-0.1506044 -0.079571456 -0.10641899 0.013444581 -0.10087623 -0.09105568 -0.039663777 -0.04734421
-0.02127251 -0.00028162863 -0.007448088 -0.068857715 -0.060187336 -0.06680309 -0.032914136 -0.110324726
-0.025749518 0.032388516 -0.040378463 -0.04247641 0.021121612 -0.07998817 -0.0031384742 -0.080310054
-0.061787244 -0.04022592 -0.06326456 -0.024450278 -0.03863804 0.059327494 -0.07545965 -0.027460894
00000000: 2790 27bd a42b 1cbd c12e 9fbd ff8c c7bd
00000010: 39d5 743c 0cb9 47bd e618 01bc 13dc 433c
00000020: b4b3 683b 6f56 e63b 13bd 533c 9b62 f7bd
00000030: 2afd c4bd 9510 6c3c cbc7 bfbd 8e54 a33b
00000040: 0d05 13bd d547 a7bd 884f ff3c edde 94bd
00000050: 4bb7 8f3c 6cf7 fabc 3a49 7fbc 5fba ca3b
00000060: 5727 78bd 0db4 c7bd 8ff9 0cbd 7157 36bd
00000070: fa7a 9ebd 9ca2 c6bc 3419 5fbc 9435 46bd
00000080: af43 d4bd 3ae0 fc3d b681 6f3b c387 34bc
00000090: 3184 90bc 7fa4 503b d2cb bfbd 92fa cfbc
000000a0: 44b2 123d 6624 04bd 7d08 81bd 4893 5ebd
000000b0: 45b0 0cbd f5b1 523c a886 5abd 8218 54bd
000000c0: 0f13 abbd 9e99 0abd c538 1dbd f2c6 98bd
000000d0: f2ab 96bc e635 a73c 64d1 f5bb e62d 1a3d
000000e0: 44a0 0e3c 8518 c4bc 760f a0bc 08b7 093d
000000f0: 783b 80bd cffa b4bc ca4c f2bb 6e8b e5bd
00000100: 3dcf b139 0ac3 f6bc fc96 e7bc c022 40bd
00000110: b02b 8cbb a18b cfbd 6078 a5bb bd0b 943c
00000120: da4a d6bd 42ae 73bd c943 a0bc cb98 203d
00000130: 6206 78bc a407 9abd e561 ddbd cc96 aabd
00000140: 98f6 f6bc 14fa 94bc cbac 49bc 5e93 72bd
00000150: 5bf7 83bd a0ea 88bd 4370 89bd c4b4 9cbd
00000160: d81b d43c dbc7 a7bb ea7f 39bc bebf 8b3c
00000170: b805 3fbd e8c7 0c3d fb97 cebb 9e36 9cbd
00000180: b027 543d ccaf a8b8 6294 aabd 5459 9ebd
00000190: 5cda 53bc 161b 5fbd 2749 b0bb 1161 af3a
000001a0: 13dd 8cbd e971 aabd 0a72 f2bb 724a 39bd
000001b0: 8168 b4ba 6318 f1ba 6742 46bc a76a abbd
000001c0: d2bd 99bb afcd 69bd 1a51 a1bd 3cbc 93bd
000001d0: 426d 09bd a22a 38bd bcd5 3abc 032a 0ebd
000001e0: 96c3 d63c 92b9 d53c 4cbf 71bd 5b00 5a3c
000001f0: b373 9cbc 9456 cebd dd99 d03b 1391 323d
00000200: bb39 41bd ada5 7fbd 5243 a0bd fa0c 7bbd
00000210: 268d 33bd 7175 08bd 4b74 f0bc 578d 8bbc
00000220: f9ae edbc 249e 70bd deaf 0ebd d699 a1bd
00000230: 1ea2 6ebd 45c0 07bd 0437 75bd bd58 f0bc
00000240: 8dc2 43bd 5be8 94bd 6413 30bd abbd 23bd
00000250: 036a a2bc 2a41 d5bc c7fc 843c 9afd 46bc
00000260: 825a d3bd 6c0c 95bc f6e2 1b3b 7666 05bd
00000270: dfc3 3fbd 85b9 97bd 3544 49bc 6021 2f3d
00000280: d09a a7bc 9e73 95bd 598b 6abd 55c1 263b
00000290: ab7e c8bb 159a 52bd 96ba cf3a 0847 013d
000002a0: 36e6 a2bc 9f39 343c 3772 aabd d31e bc3b
000002b0: 8e5d cf3c 8f13 fd3b 5cc8 48bd 19ff 273d
000002c0: d1bd a1bc 6886 c5bd dfba 88bc a68c bdbd
000002d0: 38b3 7bbd baca 2cbd e3a2 0e3d fe06 28bd
000002e0: f502 a4bb 00e3 df3d d81a a8bb 5ece fd3b
000002f0: 2173 c2bb 909c 7abd 3775 c9bc 969b 0cbd
00000300: f27d 03bd 8f9b 64bd a66d 8dbd 7442 c63b
00000310: 5f8d 96bd 7a37 50bd 57f6 213a d893 6bbc
00000320: 412c 60bd 6d1e cd3b 30d5 51bd 3bff d3bd
00000330: 8c90 a4bb a62d b9bd 558c 69bc f054 2f3d
00000340: 718c 14bd 478a 9dbd 7828 8dbc ca1e b53b
00000350: b8d9 723c 40de 0c3d 6d70 dfbc c80b cfbd
00000360: 4aa9 b4bd 01cf 72bd 758a 1bbd 9c9f b0bc
00000370: 9bf7 c1bc 6155 6ebd 82d8 cdbc e67b 2abd
00000380: 0a38 1abe 5cf6 a2bd 33f2 d9bd a946 5c3c
00000390: 3298 cebd 667b babd 7c76 22bd 01ec 41bd
000003a0: b043 aebc 8ea7 93b9 170f f4bb 4605 8dbd
000003b0: ff86 76bd 0fd0 88bd f9d0 06bd eef1 e1bd
000003c0: a7f0 d2bc d2a9 043d e363 25bd befb 2dbd
000003d0: 3b07 ad3c d6d0 a3bd dcae 4dbb 9979 a4bd
000003e0: 9f14 7dbd efc3 24bd da90 81bd f34b c8bc
000003f0: ec42 1ebd 6301 733d 978a 9abd abf5 e0bc

weight f4 [128, 256]
0.023470677 0.08893399 -0.015613614 0.057267148 -0.03439156 0.02152335 -0.0079232715 0.040007904
0.08632431 0.05168834 -0.050331723 -0.019462857 -0.04893767 0.010014019 0.00092247856 -0.010802926
0.055505253 0.045331337 -0.018260006 -0.055859264 -0.015612303 -0.0012131013 -0.05769159 0.043271128
0.018063074 0.06778025 -0.025744896 0.04134161 -0.03452986 0.016056146 -0.06438836 -0.014774102
0.03674572 0.042117883 0.12646385 0.017857093 -0.022242013 -0.007610432 0.06502725 0.01611424
0.08246966 -0.008749675 -0.0042552343 -0.070918165 0.09462806 -0.049546577 0.021651985 -0.0935716
0.024707332 -0.021828009 -0.08887078 -0.038768727 0.048998367 -0.0007813996 0.04993844 -0.023584478
-0.0785803 0.08292122 0.018127589 0.03619873 0.018873543 0.061921544 -0.012113076 -0.059258267
-0.018121447 0.08466445 -0.0045696828 -0.023559265 -0.04504089 0.091995455 -0.066660896 -0.064555734
-0.07314919 0.029617516 -0.01099934 -0.024392406 0.035798818 0.055830482 -0.021318778 -0.11624577
-0.009390823 0.024947578 -0.0018275196 -0.037980255 -0.036606427 0.010820063 0.021349492 0.021550795
0.0031152626 -0.082652755 0.05236057 0.027829472 0.042692166 0.007818795 0.026946422 -0.082288966
-0.046807185 0.055668287 0.021581654 -0.013225786 -0.015857058 0.019588271 -0.057442825 0.059519794
0.028224494 0.027805392 0.013941373 0.0630788 0.029871006 0.0076475395 0.027783839 0.064653754
-0.021398917 0.0131465765 -0.060763173 0.03146173 -0.01241068 -0.06581986 -0.007432165 0.0481798
0.018153276 0.023273708 0.0034550542 0.06995892 -0.04368225 0.030080657 0.004957133 0.06325432
-0.05799171 0.060334604 0.09337449 -0.005702431 0.04184573 -0.007916061 0.053056892 -0.07937645
0.071365125 -0.005660165 -0.098545805 0.08424279 -0.04162788 0.045845725 -0.087346844 0.01791801
-0.04584886 0.03456637 -0.014917782 0.04340963 0.010644233 -0.0005870956 0.02711302 0.008447117
0.06890648 0.048062846 0.032421384 0.037049707 0.027315313 0.08698165 -0.015493397 -0.012495529
0.05041545 0.102238655 0.003969383 -0.03847415 0.04004065 -0.02237525 -0.017151965 0.008067356
0.019471006 -0.06341876 -0.010021967 -0.055919215 0.017521825 -0.0115443235 -0.07760717 0.08671362
0.050547834 0.05315714 0.054727547 0.020817216 0.062308125 -0.033830978 -0.0042983857 0.104098976
-0.029134648 -0.035501413 0.04284898 -0.030727355 -0.01623041 0.04133721 0.043742586 -0.046200894
0.061183136 0.05754102 -0.03199709 0.034147993 0.023833716 0.024802236 0.07068392 0.068649225
0.12419844 0.078421734 0.014962862 0.00666257 -0.055581145 0.05975079 -0.104034945 -0.05919779
-0.0015201967 0.02962045 0.07561581 -0.087896466 -0.023183929 0.15419137 0.024126766 0.047980733
-0.029636227 -0.031810496 0.039348807 0.08718602 0.07470484 -0.021399518 0.009898852 -0.09746978
0.008357738 0.009412649 0.014696687 -0.043641347 0.08472381 -0.06855639 -0.023613667 -0.01712579
0.034909885 0.11710943 0.054587267 0.13469246 -0.034174424 -0.056542344 0.044033036 -0.048568208
0.06380308 0.054820523 0.07619053 0.015624241 -0.04630297 0.08108142 -0.00821056 0.04577122
-0.022524232 0.05124002 0.06415647 0.03990433 0.104037926 -0.04331476 -0.0011673392 0.006472212
00000000: 9445 c03c 0623 b63d 3ed0 7fbc f590 6a3d
00000010: 2ade 0cbd bd51 b03c 9cd0 01bc 54df 233d
00000020: cdca b03d 27b7 533d a328 4ebd 9270 9fbc
00000030: de72 48bd d711 243c 7dd2 713a c1fe 30bc
00000040: 7a59 633d 5aad 393d 0296 95bc afcc 64bd
00000050: bfca 7fbc ed00 9fba 044e 6cbd 113d 313d
00000060: 03f9 933c 5fd0 8a3d f6e6 d2bc d255 293d
00000070: 2f6f 0dbd 2e88 833c 0bde 83bd 130f 72bc
00000080: ae82 163d cd83 2c3d bd7f 013e 0a49 923c
00000090: e234 b6bc ee60 f9bb 022d 853d 0302 843c
000000a0: dae5 a83d cc5a 0fbc 7e6f 8bbb 8b3d 91bd
000000b0: 5bcc c13d 5af1 4abd 815f b13c 78a2 bfbd
000000c0: 0867 ca3c a7d0 b2bc e201 b6bd f5cb 1ebd
000000d0: 83b2 483d d7d6 4cba 408c 4c3d 3c34 c1bc
000000e0: b5ee a0bd 9ad2 a93d 4f80 943c 1f45 143d
000000f0: b09c 9a3c 72a1 7d3d ec75 46bc ccb8 72bd
00000100: 6e73 94bc 8e64 ad3d 47bd 95bb 5cff c0bc
00000110: cc7c 38bd 1d68 bc3d 8285 88bd cc35 84bd
00000120: 3ecf 95bd 6fa0 f23c 9336 34bc 95d2 c7bc
00000130: c8a1 123d 81ae 643d b8a4 aebc 4312 eebd
00000140: f7db 19bc dd5e cc3c 6289 efba 2f91 1bbd
00000150: 9ff0 15bd a246 313c 21e5 ae3c 4b8b b03c
00000160: 6f29 4c3b d945 a9bd 0978 563d a2fa e33c
00000170: fbdd 2e3d 671a 003c bebe dc3c 1e87 a8bd
00000180: e4b8 3fbd 6e04 643d 02cc b03c f8b0 58bc
00000190: a9e6 81bc 9577 a03c 2b49 6bbd 07cb 733d
000001a0: 0e37 e73c 22c8 e33c 5b6a 643c 752f 813d
000001b0: 0ab4 f43c 3698 fa3b ef9a e33c 3069 843d
000001c0: c84c afbc bd64 573c cee2 78bd 04de 003d
000001d0: 2a56 4bbc 90cc 86bd 8589 f3bb 2f58 453d
000001e0: 2eb6 943c 81a8 be3c 316e 623b 9f46 8f3d
000001f0: 29ec 32bd b66b f63c 726f a23b 7b8b 813d
00000200: b788 6dbd 6b21 773d 203b bf3d 75db babb
00000210: 6e66 2b3d 5eb2 01bc 2f52 593d 1f90 a2bd
00000220: e127 923d e878 b9bb 62d2 c9bd 7c87 ac3d
00000230: ff81 2abd bac8 3b3d e7e2 b2bd cac8 923c
00000240: 04cc 3bbd 7795 0d3d b669 74bc 4cce 313d
00000250: 2665 2e3c 52e7 19ba 201c de3c c765 0a3c
00000260: d71e 8d3d 8cdd 443d 49cc 043d 6fc1 173d
00000270: 5dc4 df3c 6f23 b23d 04d8 7dbc 0cba 4cbc
00000280: 6e80 4e3d 8062 d13d 9911 823b 1297 1dbd
00000290: aa01 243d 4d4c b7bc 4782 8cbc f22c 043c
000002a0: a981 9f3c b2e1 81bd 2d33 24bc 8c0b 65bd
000002b0: ee89 8f3c 6724 3dbc 82f0 9ebd e996 b13d
000002c0: 3f0b 4f3d 4dbb 593d fe29 603d de88 aa3c
000002d0: ce36 7f3d 5a92 0abd 79d9 8cbb d831 d53d
000002e0: c9ab eebc ee69 11bd 6982 2f3d efb7 fbbc
000002f0: a3f5 84bc 3551 293d 6d2b 333d 263d 3dbd
00000300: 2b9b 7a3d 22b0 6b3d 610f 03bd c4de 0b3d
00000310: ed3e c33c 0f2e cb3c bbc2 903d f797 8c3d
00000320: c05b fe3d 939b a03d cb26 753c b051 da3b
00000330: 0ea9 63bd 3fbd 743d 4610 d5bd 6279 72bd
00000340: 5641 c7ba 96a6 f23c 76dc 9a3d 1003 b4bd
00000350: 39ec bdbc 58e4 1d3e 7fa5 c53c 7287 443d
00000360: acc7 f2bc b94b 02bd 372c 213d 968e b23d
00000370: dafe 983d 0b4e afbc cb2e 223c 3c9e c7bd
00000380: e5ee 083c 8337 1a3c 60ca 703c 45c1 32bd
00000390: ad83 ad3d 4b67 8cbd 7371 c1bc 624b 8cbc
000003a0: abfd 0e3d 12d7 ef3d e696 5f3d d2ec 093e
000003b0: 7bfa 0bbd f298 67bd fc5b 343d 75ef 46bd
000003c0: 30ab 823d 7c8b 603d c809 9c3d d1fc 7f3c
000003d0: 2fa8 3dbd 040e a63d 9685 06bc 9a7a 3b3d
000003e0: bd84 b8bc 0ee1 513d 7864 833d b972 233d
000003f0: d611 d53d d16a 31bd 6701 99ba d914 d43b

bias f4 [128]
-0.03703285 -0.019289391 0.006073054 -0.0847424 1.5746384e-05 -0.021706058 0.034313068 -0.05023012
-0.0532298 -0.029343547 0.010097643 -0.10522615 -0.053460784 -0.11982955 -0.04137221 -0.041241962
-0.03788686 -0.038612027 -0.06465163 -0.09675896 0.11163518 0.012050054 -0.07458009 -0.083614
-0.07536793 0.016366912 0.035470165 0.09466868 -0.09902012 0.04416426 -0.046229348 0.06706595
-0.09041991 -0.090030335 0.041218225 -0.009517396 -0.09262081 0.036032807 -0.04610773 -0.029036192
-0.09785987 -0.021197574 -0.05646175 0.049692925 -0.07938651 -0.002861703 -0.06677368 0.06923457
-0.057265513 -0.06589313 0.058792684 -0.0074442597 0.0024523553 -0.013272255 -0.057015765 -0.022091128
0.1370247 -0.08199189 -0.06448399 -0.119407654 0.0005807179 -0.012557798 -0.033591006 0.088706926
-0.0491912 -0.06330693 -0.026329067 -0.035984393 -0.016682282 0.02880152 0.025967518 0.054440748
0.07488276 -0.09791668 -0.030580722 -0.064372614 -0.033764247 -0.1167554 0.060673058 -0.019710861
-0.055900313 0.05386269 -0.11394002 0.036229268 0.11973217 -0.112376206 -0.011279254 -0.014996363
0.081054136 -0.055261124 -0.027758375 -0.005428433 -0.07617754 -0.07641749 0.058085866 0.014625677
-0.08939523 -0.07119937 -0.09884607 -0.09511337 -0.07015475 -0.082364134 -0.025826473 0.032278858
7.448055e-05 -0.051892787 -0.08150964 0.012674809 -0.010953387 -0.05665677 0.009745605 -0.04756736
0.05606896 0.044584207 0.029946232 -0.10419947 0.058638822 0.0036644735 -0.04276949 0.13265383
-0.05905673 0.059807662 -0.04739866 0.026004001 -0.016373195 -0.10578777 -0.02955647 0.078825474
00000000: c2af 17bd c904 9ebc 7800 c73b 6c8d adbd
00000010: 1a17 8437 e7d0 b1bc dc8b 0c3d 19be 4dbd
00000020: 7e07 5abd e161 f0bc 9670 253c cf80 d7bd
00000030: b2f9 5abd 3269 f5bd e875 29bd 55ed 28bd
00000040: 412f 1bbd a527 1ebd 1368 84bd 9029 c6bd
00000050: fca0 e43d 976d 453c 72bd 98bd d13d abbd
00000060: 805a 9abd e713 863c 2a49 113d a7e1 c13d
00000070: 10cb cabd 95e5 343d fc5a 3dbd df59 893d
00000080: 132e b9bd d361 b8bd 71d4 283d daee 1bbc
00000090: fbaf bdbd 2397 133d 76db 3cbd 4fdd edbc
000000a0: c16a c8bd 89a6 adbc 7044 67bd cf8a 4b3d
000000b0: 6595 a2bd 698b 3bbb a4c0 88bd dbca 8d3d
000000c0: 3e8f 6abd faf2 86bd 99d0 703d faee f3bb
000000d0: b2b7 203b df73 59bc 5d89 69bd 74f8 b4bc
000000e0: 3450 0c3e 5deb a7bd 2f10 84bd 008c f4bd
000000f0: 523b 183a 39bf 4dbc b996 09bd faab b53d
00000100: b67c 49bd 10a7 81bd 0eb0 d7bc 5f64 13bd
00000110: 48a9 88bc 2af1 eb3c d5b9 d43c 43fd 5e3d
00000120: 225c 993d 8a88 c8bd 6c84 fabc cad5 83bd
00000130: 614c 0abd 751d efbd 5084 783d ac78 a1bc
00000140: baf7 64bd 209f 5c3d 6359 e9bd 2465 143d
00000150: 2436 f53d 7f25 e6bd 9fcc 38bc 4eb3 75bc
00000160: b6ff a53d 7d59 62bd 8865 e3bc ffe0 b1bb
00000170: f802 9cbd c680 9cbd 72eb 6d3d 89a0 6f3c
00000180: d914 b7bd fad0 91bd cf6f cabd ccca c2bd
00000190: 4bad 8fbd 87ae a8bd 0a92 d3bc d636 043d
000001a0: 7132 9c38 888d 54bd 87ee a6bd 01aa 4f3c
000001b0: d675 33bc ee10 68bd 08ac 1f3c fed5 42bd
000001c0: 91a8 653d ee9d 363d cd51 f53c 8866 d5bd
000001d0: 432f 703d aa27 703b 102f 2fbd 68d6 073e
000001e0: 78e5 71bd e1f8 743d 1925 42bd 5806 d53c
000001f0: 1421 86bc 42a7 d8bd 6920 f2bc 406f a13d

weight f4 [24, 128]
-0.031276837 0.02886012 0.022958973 -0.056961853 0.019611819 -0.04121717 0.012885432 0.053668395
-0.039487917 -0.047703814 -0.09066065 -0.05607244 -0.044437256 0.058826033 -0.012216001 0.019779239
0.01251678 -0.10106582 -0.018912807 -0.043861214 -0.015138105 0.00010710577 -0.05027429 0.0015500152
0.046820827 -0.09687508 -0.028395616 -0.02595224 -0.035922725 -0.007891663 -0.0040962966 0.03375499
0.04081048 -0.01322884 -0.032841515 0.09619208 -0.029978042 0.022620903 -0.03637913 0.018347777
0.04217122 -0.03476856 0.02420372 0.11909135 -0.029345965 0.0071594105 -0.0844662 0.09177334
0.025510965 -0.028755184 -0.007621 0.012441182 -0.02322392 -0.06257026 -0.039823968 0.032372843
0.11434257 -0.027969288 0.005938044 -0.014731878 0.047029983 -0.029387178 0.10100475 0.041032124
0.021167908 0.026221016 0.047402147 -0.03489942 0.017091284 -0.010875842 -0.015930833 0.0006332905
-0.026583467 -0.005116977 0.008230526 -0.03919154 -0.051748525 0.05266363 0.043395437 -0.0768318
0.039236356 0.080902085 0.04484287 0.03408159 -0.030187609 -0.016228888 0.027221086 -0.015716301
0.0008778602 -0.018201165 0.022384763 0.024124825 0.024772432 0.024172569 0.038722463 0.043835986
-0.005916463 -0.054733604 -0.017858079 -0.010001263 0.0086675035 -0.03260873 0.024908116 -0.0076411148
0.053152688 -0.02256065 -0.027195022 -0.0689688 0.043572307 0.0066896975 -0.039480694 0.0740207
-0.011495411 -0.002636454 0.00673585 -0.07688071 -0.013413108 0.022880288 -0.06065498 -0.06322028
0.019742701 -0.024743097 0.06749837 -0.021041414 -0.0020345738 -0.038139135 0.062482577 0.06846494
-0.034249377 0.032705985 -0.07535625 -0.047971684 0.027446385 -0.059714414 0.068827294 0.08252806
0.069146946 -0.006500881 0.09789084 0.03722883 0.0032704377 -0.032148045 0.028654613 -0.008305705
-0.093043774 -0.034849092 -0.033744555 0.029018061 0.014199703 -0.04558815 -0.023767233 -0.012449599
0.07965553 -0.020991515 -0.012424546 0.090690136 -0.014560016 -0.024417216 0.008138272 0.00062369666
0.050651263 0.05547299 0.008489716 0.06134906 -0.080356345 0.059475973 -0.040022712 0.023903051
-0.014330256 -0.021338278 -0.030941455 -0.1020479 -0.02981076 0.0073280935 0.13361569 0.040899556
-0.061537858 0.0076448685 -0.024937782 0.07504404 0.037737798 -0.02665317 -0.04937945 0.0025244574
-0.037052438 -0.039390802 -0.08545877 0.0137879485 0.01678903 -0.04464614 0.03460883 0.008340643
-0.03067742 0.019219069 -0.049280014 -0.03888114 -0.011392543 -0.068493076 -0.04885147 -0.02188669
0.04204452 -0.017579678 0.016970797 -0.009775671 0.012540558 -0.026482556 0.022509973 0.04294383
0.013680437 0.0025302453 0.009791796 0.06715172 0.022306133 -0.07655168 0.026378475 -0.014725901
0.069901265 0.061161503 -0.0048104697 0.08062016 0.013117667 0.07877144 -0.13035813 -0.01493569
0.038715895 0.011391958 0.030055963 -0.0029512392 0.072494045 -0.050877426 -0.010696274 -0.03527697
0.013476668 -0.018487193 -0.010084865 0.049210858 -0.0037364208 -0.019958807 -0.034952816 0.025991313
0.02528474 -0.022135824 0.00973337 0.01348682 0.022290206 -0.04262227 -0.012609705 -0.005888007
0.06025427 -0.02656906 0.036124866 0.030351432 -0.048706245 0.041973457 -0.011775032 0.02584478
00000000: 241c 00bd 0f6c ec3c 7514 bc3c d550 69bd
00000010: f7a8 a03c 56d3 28bd 6b1d 533c 64d3 5b3d
00000020: 15be 21bd 1365 43bd 4aac b9bd 37ac 65bd
00000030: d703 36bd 91f3 703d 9f25 48bc 1208 a23c
00000040: 2e13 4d3c 99fb cebd 08ef 9abc d1a7 33bd
00000050: d005 78bc f99d e038 6aec 4dbd e129 cb3a
00000060: 32c7 3f3d 7166 c6bd ec9d e8bc cb99 d4bc
00000070: b523 13bd 094c 01bc 3a3a 86bb ac42 0a3d
00000080: e428 273d c7bd 58bc d384 06bd 5a00 c53d
00000090: 8394 f5bc 794f b93c 4802 15bd 144e 963c
000000a0: bbbb 2c3d 7a69 0ebd e146 c63c 2ae6 f33d
000000b0: f366 f0bc 7d99 ea3b 9dfc acbd a9f3 bb3d
000000c0: 5ffc d03c fe8f ebbc 95b9 f9bb 19d6 4b3c
000000d0: 1740 bebc d624 80bd 751e 23bd 6399 043d
000000e0: 702c ea3d d91f e5bc ec93 c23b fa5d 71bc
000000f0: 83a2 403d 61bd f0bc 94db ce3d 4d11 283d
00000100: 5268 ad3c 75cd d63c c128 423d b2f2 0ebd
00000110: 0503 8c3c 9630 32bc 6181 82bc 6803 263a
00000120: 92c5 d9bc 50ac a7bb 54d9 063c 4f87 20bd
00000130: 43f6 53bd d2b5 573d 6abf 313d fe59 9dbd
00000140: 4db6 203d feaf a53d 28ad 373d 2399 0b3d
00000150: 014c f7bc 72f2 84bc c1fe de3c 79bf 80bc
00000160: 3320 663a 9c1a 95bc 4060 b73c 6da1 c53c
00000170: 8eef ca3c 8d05 c63c 729b 1e3d 5d8d 333d
00000180: e4de c1bb 5830 60bd 1b4b 92bc 56dc 23bc
00000190: 2502 0e3c bb90 05bd 1b0c cc3c 5162 fabb
000001a0: a2b6 593d 1dd1 b8bc 18c8 debc 843f 8dbd
000001b0: e078 323d 4035 db3b 82b6 21bd 2a98 973d
000001c0: 4057 3cbc 5cc8 2cbb 68b8 dc3b a273 9dbd
000001d0: a7c2 5bbc 716f bb3c 5b71 78bd a279 81bd
000001e0: 72bb a13c 09b2 cabc 963c 8a3d 0b5f acbc
000001f0: 7c56 05bb c837 1cbd bbed 7f3d 5937 8c3d
00000200: 1349 0cbd b6f6 053d 6154 9abd f57d 44bd
00000210: 3ed7 e03c 1a97 74bd 53f5 8c3d 7904 a93d
00000220: ea9c 8d3d 5805 d5bb fe7a c83d 427d 183d
00000230: d754 563b abad 03bd 14bd ea3c a714 08bc
00000240: bc8d bebd ecbd 0ebd bb37 0abd 49b7 ed3c
00000250: dfa5 683c a4ba 3abd 80b3 c2bc 67f9 4bbc
00000260: 7022 a33d 66f6 abbc 5390 4bbc c0bb b93d
00000270: 228d 6ebc 9d06 c8bc 6356 053c 937f 233a
00000280: b377 4f3d a537 633d 7318 0b3c 2749 7b3d
00000290: de91 a4bd 149d 733d dbee 23bd 55d0 c33c
000002a0: 73c9 6abc 9dcd aebc ef78 fdbc 7dfe d0bd
000002b0: b235 f4bc 8120 f03b 8dd2 083e 4b86 273d
000002c0: 1f0f 7cbd ce81 fa3b 524a ccbc b1b0 993d
000002d0: f392 1a3d c057 dabc 1b42 4abd 5e71 253b
000002e0: 4cc4 17bd 4058 21bd 0205 afbd d9e6 613c
000002f0: 2689 893c dfde 36bd fdc1 0d3d 31a7 083c
00000300: 364f fbbc 4f71 9d3c d7d9 49bd d541 1fbd
00000310: caa7 3abc 1946 8cbd 7b18 48bd b74b b3bc
00000320: e036 2c3d 4203 90bc 5706 8b3c 232a 20bc
00000330: ea76 4d3c f2f1 d8bc d666 b83c dfe5 2f3d
00000340: e923 603c 79d2 253b c56d 203c d786 893d
00000350: 5abb b63c 21c7 9cbd ac17 d83c e844 71bc
00000360: 6528 8f3d 7c84 7a3d 25a1 9dbb 2f1c a53d
00000370: 7ceb 563c ec52 a13d 9a7c 05be d3b4 74bc
00000380: 8f94 1e3d 56a5 3a3c ec37 f63c 9469 41bb
00000390: c277 943d d964 50bd 6d3f 2fbc 967e 10bd
000003a0: 3ecd 5c3c 7472 97bc fd3a 25bc 5391 493d
000003b0: bdde 74bb a780 a3bc af2a 0fbd bceb d43c
000003c0: f121 cf3c 3056 b5bc b678 1f3c d3f7 5c3c
000003d0: f399 b63c b094 2ebd f098 4ebc 2ff0 c0bb
000003e0: 2ecd 763d 5ba7 d9bc abf7 133d 91a3 f83c
000003f0: 3380 47bd 5cec 2b3d 10ec 40bc 6fb8 d33c

bias f4 [24]
-0.015869178 -0.06107393 0.12630437 -0.017164135 0.053558588 0.0051895943 0.12948366 -0.056234077
0.0019017184 0.033512134 0.13453926 -0.006300572 -0.06715876 0.049961478 0.12476738 -0.0050392784
0.06896742 0.087869324 0.05650935 0.016580023 0.07185511 0.05317384 0.09828837 0.10208852
00000000: 1400 82bc a828 7abd ef55 013e cd9b 8cbc
00000010: 4060 5b3d 790d aa3b 5d97 043e b455 66bd
00000020: 1543 f93a 0544 093d a9c4 093e 0775 cebb
00000030: 888a 89bd 68a4 4c3d 0a86 ff3d 8820 a5bb
00000040: ca3e 8d3d d5f4 b33d 5976 673d d4d2 873c
00000050: c628 933d d0cc 593d 6a4b c93d c913 d13d
