policy/hex4/legged_gym/model_loco.pt (torch, 856213 bytes, 8 tensors)

weight f4 [512, 85]
0	0x3abcb694	0.0014397674
1	0xbc48f01c	-0.012264278
2	0x3cc46396	0.023973268
3	0xbdaa913e	-0.08328484
4	0xbcf9d7bd	-0.03049838
5	0xbd763177	-0.060105767
6	0x3da199c0	0.078906536
7	0x3b75c3bf	0.0037500707
8	0x3d923a1c	0.0713999
9	0xbd913185	-0.07089523
10	0x3bba6607	0.005688432
11	0x3eff5ddc	0.49876297
12	0x3e291d42	0.16515067
13	0x3e7c5607	0.24642192
14	0x3c0318e3	0.008001539
15	0x3e28ff2c	0.1650359
16	0x3e76d6c4	0.24105364
17	0xbd2fa321	-0.04288018
18	0xbeb3fe7e	-0.351551
19	0xbd5527aa	-0.05203978
20	0x3ea9418f	0.3305783
21	0x3de91101	0.11380196
22	0x3e045374	0.1292246
23	0xbc35eaec	-0.011103373
24	0x3d91ebaa	0.071250275
25	0xbcccbb69	-0.024991708
26	0xbe8278f3	-0.25482902
27	0x3e7878da	0.24264851
28	0xbe57a726	-0.21059856
29	0x3d96fe94	0.07372776
30	0xbdc2a2f8	-0.0950374
31	0xbd923c42	-0.071403995
32	0xbd7df485	-0.06200077
33	0xbe69b1e0	-0.2282176
34	0xbd896d1a	-0.067102626
35	0x3e045238	0.12921989
36	0xbda2589c	-0.07927057
37	0x3daf9116	0.08572595
38	0x3d0008e5	0.031258482
39	0x3de41f5f	0.11138796
40	0xbc905efd	-0.017623419
41	0x3c9aebbf	0.01891124
42	0xbdf64a7f	-0.12025928
43	0xbd87fa66	-0.066395566
44	0xbe27b99c	-0.16379398
45	0x3cb6a565	0.022295663
46	0xbd589cd5	-0.05288394
47	0xbc076af0	-0.008265242
48	0xbe5bd3c6	-0.21467504
49	0xbd99339d	-0.074805476
50	0x3e138e81	0.1440983
51	0xbe6dc13e	-0.23218247
52	0x3dec6bed	0.11544023
53	0xbdbfdfce	-0.09368859
54	0x3e4ae7fa	0.19815055
55	0xbc23aabb	-0.009989436
56	0x3e21c73b	0.15798657
57	0x3e002d82	0.1251736
58	0xbe4a3f47	-0.19750701
59	0xbdefc7e3	-0.11708047
60	0xbc55d9e4	-0.013052437
61	0x3b420642	0.002960578
62	0xbc3847fa	-0.011247629
63	0xbd18c0ed	-0.037293363
64	0xbdc6b17d	-0.09701822
65	0x3d3da726	0.046301983
66	0xbdc50adb	-0.09621211
67	0xbdb0a341	-0.08624888
68	0x3cee8ecd	0.029120827
69	0x3d1a14fe	0.037617676
70	0x3c40de79	0.011771792
71	0xbdb07254	-0.08615556
72	0x3d8a794d	0.067614175
73	0x3d93d44a	0.07218225
74	0xbcae3fea	-0.021270711
75	0x3d84aa56	0.064778015
76	0xbd0cd0c2	-0.034378774
77	0x3d8f90b1	0.070100196
78	0x3c6109c9	0.013735243
79	0xbd7d0835	-0.061775405
80	0xbce5f983	-0.028073078
81	0xbdaa359e	-0.08311008
82	0xbd801dc8	-0.0625568
83	0x3c1f97af	0.009740754
84	0xbc5ed85d	-0.01360139
85	0xbc19e305	-0.009392505
86	0x3c514bee	0.012774451
87	0xbcba0d08	-0.022711292
88	0x3cda9522	0.02668244
89	0xbe206b95	-0.1566604
90	0x3d385458	0.04500231
91	0x3d8e5827	0.069504075
92	0x3d750fd9	0.059829567
93	0x3c51d00c	0.01280595
94	0xbd8aef90	-0.06783974
95	0xbd498f35	-0.04920884
96	0x3dede1d3	0.11615338
97	0xbe10f4bf	-0.14155863
98	0x3b846140	0.0040399134
99	0x3e8a46ad	0.27007046
100	0xbdf995b2	-0.12186755
101	0xbd33feaf	-0.043944057
102	0x3ddbe398	0.107367694
103	0xbe180871	-0.1484697
104	0xbd1ff0be	-0.03904795
105	0xbddf316c	-0.10898098
106	0xbdeb20fb	-0.114809
107	0x3e2a73a9	0.16645683
108	0xbd0e0b04	-0.034678474
109	0xbb5eb88a	-0.0033984506
110	0x3db49dbe	0.088191494
111	0x3f02841a	0.5098282
112	0xbc08064f	-0.008302285
113	0xbe87d194	-0.26527083
114	0xbe87a1ea	-0.26490718
115	0xbd70bce3	-0.058773886
116	0x3ddcccf6	0.10781281
117	0xbe1b71d3	-0.15180139
118	0xbc044881	-0.008073927
119	0x3e509d2c	0.20372456
120	0xbe1cebb9	-0.15324296
121	0xbd40db8b	-0.047084372
122	0x3d13bd22	0.036069043
123	0x3cefe067	0.029281808
124	0xbcc404b2	-0.02392802
125	0x3d85288b	0.065018736
126	0x3d3de634	0.046362117
127	0xbc9bccaf	-0.0190185
128	0x3a9459cf	0.0011318269
129	0x3d72b990	0.059258997
130	0x3dc2a220	0.09503579
131	0xbe0db22d	-0.138375
132	0xbc582393	-0.013192075
133	0xbe04f45f	-0.12983845
134	0x3e31a8e4	0.17349583
135	0x3eb2fa6d	0.34956685
136	0xbc8c2ecc	-0.017112158
137	0x3d550028	0.052002102
138	0xbc8a9aab	-0.016919455
139	0xbd920d53	-0.07131448
140	0xbcb1a76c	-0.021686278
141	0xbdaac1eb	-0.08337768
142	0xbceb4472	-0.02871916
143	0xbd4cbb14	-0.0499831
144	0xbe01f763	-0.12692027
145	0xbc9a539c	-0.018838696
146	0xbd2f9c4c	-0.042873666
147	0x3af58215	0.0018730784
148	0xbd201124	-0.039078847
149	0xbd557d4b	-0.05212144
150	0x3d6d530d	0.05794053
151	0x3af5add6	0.0018743824
152	0x3ba83e98	0.005134415
153	0x3d9f71be	0.077853665
154	0xbdb5fc7f	-0.088860504
155	0x3d39012d	0.045167137
156	0x3ce93273	0.028466439
157	0xbdc9ff6a	-0.098631695
158	0x3d5b07c9	0.05347422
159	0xbd9bb571	-0.076029666
160	0x3d487fa4	0.048949853
161	0xbd3bb705	-0.045828838
162	0xbd73f4ea	-0.05955974
163	0xbd1b5869	-0.03792611
164	0x3d51206a	0.051056303
165	0x3cacf92e	0.021114912
166	0xbc9bfdc1	-0.019041898
167	0x3e09d5b6	0.1346043
168	0xbd973dc8	-0.07384831
169	0xbcf65b61	-0.03007287
170	0xbc5e7fab	-0.013580243
171	0x3c1958f4	0.009359587
172	0xbbd608e8	-0.0065318234
173	0xbdd1c07a	-0.1024179
174	0xbc9e95ca	-0.019358534
175	0x3dd344b6	0.1031584
176	0xbd3de4e0	-0.04636085
177	0xbde0ffe0	-0.10986304
178	0xbd96f9e7	-0.07371884
179	0xbde6fd7c	-0.11278817
180	0x3a9aab05	0.0011800235
181	0xbedc4e96	-0.43028706
182	0xbda212fe	-0.07913779
183	0x3eb6a454	0.35672247
184	0x3e273c5f	0.16331623
185	0xbdf32257	-0.11871784
186	0xbe2f5882	-0.17123607
187	0xbd98d1e7	-0.07461911
188	0xbe135805	-0.14389046
189	0x3e4c5908	0.19955838
190	0xbec5e4ff	-0.38651273
191	0xbe785a72	-0.24253252
192	0x3d318083	0.04333545
193	0xbd77a3cc	-0.060458943
194	0x3e0786ee	0.13235065
195	0xbda5e8fc	-0.08101079
196	0xbe98420e	-0.29737896
197	0x3e54634e	0.20741007
198	0xbd1c4e6a	-0.03816072
199	0x3e2b2f38	0.16717231
200	0xbd9180b0	-0.07104623
201	0xbd8202a0	-0.06348157
202	0xbc314a37	-0.010820917
203	0xbd49b17c	-0.049241528
204	0xbcf356f7	-0.029704554
205	0x3dc75409	0.09732825
206	0xbe1ad38d	-0.15119763
207	0x3bbe42a3	0.0058062836
208	0x3de2e5d7	0.11078995
209	0x3c2dfe1e	0.010619668
210	0x3ceddf78	0.029037222
211	0xbdd943a9	-0.10608608
212	0x3da511d2	0.080600396
213	0x3dc65603	0.09684374
214	0x3e3675f8	0.17818439
215	0x3e42ea29	0.19034638
216	0x3d7c19bd	0.061547983
217	0x3d9ab797	0.07554548
218	0xbd6fa104	-0.058503166
219	0xbe4ca817	-0.19985996
220	0xbd477ebc	-0.048704848
221	0xbe04df98	-0.12975919
222	0x3d8065a1	0.06269384
223	0xbdaf7512	-0.08567251
224	0x3e0b3502	0.1359444
225	0x3c33454d	0.010941816
226	0x3e5b97b2	0.21444586
227	0x3e865bb5	0.26241842
228	0xbe2eb6b8	-0.17061889
229	0x3de8431f	0.11340927
230	0x3d8f300d	0.06991587
231	0xbbc5180b	-0.006014829
232	0xbca091d9	-0.019600796
233	0x3da59045	0.08084158
234	0xbd6ae321	-0.057345513
235	0xbc08653d	-0.008324918
236	0xbd8263e8	-0.06366712
237	0xbabc1d01	-0.0014351906
238	0xbc6ad23e	-0.014332352
239	0x3cce1419	0.025156068
240	0xbc4249ab	-0.011858384
241	0xbd40e0c6	-0.04708936
242	0xbcdcca9b	-0.026952079
243	0xbcc3d8d9	-0.023907112
244	0x3c795d6c	0.015220027
245	0xbd365d3d	-0.044522513
246	0xbd44a9d2	-0.048013516
247	0x3d80e1d2	0.06293072
248	0xbc265f03	-0.0101544885
249	0xbcaa53f7	-0.02079199
250	0xbd0603bd	-0.03271841
251	0xbd95cf3c	-0.073149174
252	0x3d21b542	0.0394795
253	0xbd397551	-0.045277897
254	0x37129fdf	8.739501e-06
255	0x3be72afa	0.0070546838

bias f4 [512]
0	0x3d60b123	0.05485643
1	0x3d7ed9fa	0.062219597
2	0xbde509c1	-0.11183501
3	0xbdbc756f	-0.09202086
4	0xbbd6f944	-0.0065604765
5	0xbdcb2bfc	-0.09920499
6	0x3d9f5f0e	0.07781802
7	0x3c408811	0.011751191
8	0x3b0c8204	0.00214398
9	0xbd96af13	-0.073576115
10	0x3d99261f	0.07477974
11	0x3d28d9cd	0.041223336
12	0xbe1605e8	-0.1465069
13	0x3c6292fc	0.013828989
14	0xbb0020b8	-0.0019550752
15	0xbdece8a7	-0.115678124
16	0xbcbac915	-0.022800962
17	0xbbb15846	-0.0054121343
18	0xbda0abfd	-0.07845304
19	0xbdfd7ead	-0.12377677
20	0xbdeb2420	-0.114815
21	0xbe1a173d	-0.15047927
22	0xbcd97154	-0.026543297
23	0xbd91f105	-0.07126049
24	0x3d3aadb1	0.0455758
25	0x3d7b322d	0.06132715
26	0xbd3f23c2	-0.04666496
27	0x3cee83a0	0.029115498
28	0xbcfe0ac4	-0.031010993
29	0xbcef6627	-0.029223515
30	0xbd23bb55	-0.039973576
31	0xbde50ce4	-0.11184099
32	0xbd840469	-0.06446154
33	0xbd9c6a2c	-0.07637438
34	0x3dafb663	0.085797094
35	0xbd2c8f1d	-0.04212867
36	0x3cf2bdc9	0.029631512
37	0x3d8d373c	0.06895301
38	0x3d1253e5	0.03572454
39	0x3d2f2217	0.04275712
40	0x3da442d2	0.080205575
41	0x3c92cf66	0.01792116
42	0x3d6501db	0.055909973
43	0x3d71d429	0.059040222
44	0xbdc1dd64	-0.09466055
45	0x3cab6540	0.020922303
46	0x3c929b80	0.017896414
47	0x3e145d9a	0.14488831
48	0x3b0dc716	0.0021633557
49	0x3cf24663	0.029574579
50	0xbd7e9763	-0.062156092
51	0x3dceadfa	0.10091777
52	0xbd87df2c	-0.066343635
53	0x3d90273c	0.07038733
54	0xbe100ad6	-0.14066634
55	0x3c2cbe32	0.010543393
56	0xbd6b7e23	-0.05749334
57	0x3cd2836f	0.025697438
58	0xbd9826dc	-0.07429287
59	0xbab38703	-0.0013696853
60	0xbdc5f500	-0.09665871
61	0x3db8f1de	0.090305075
62	0xbdaee104	-0.08539012
63	0xbd1eb289	-0.038744483
64	0x3d563491	0.052296225
65	0xbd67e043	-0.056610357
66	0x3c8242a1	0.015900912
67	0x3d04cb2c	0.032420322
68	0x3ca5e46b	0.02025052
69	0x3ca0c366	0.019624423
70	0xbc856206	-0.016282093
71	0xbda6da1b	-0.08147069
72	0x3d2e7e05	0.04260065
73	0x3dfb5a5d	0.12273095
74	0xbcca8696	-0.024722379
75	0xbcb1d4f0	-0.021707982
76	0x3d168d13	0.036755633
77	0x3d87659a	0.06611176
78	0x3d25b391	0.04045445
79	0xbdd746fc	-0.10511586
80	0xbd89b71d	-0.06724379
81	0xbdb25265	-0.08707122
82	0xbd4e3a79	-0.050348733
83	0x3ceed5fa	0.029154766
84	0xbd425a98	-0.04744968
85	0xbd0118da	-0.03151784
86	0xbc8b902c	-0.01703652
87	0xbd04b18f	-0.032395896
88	0xbdb42db5	-0.087977804
89	0x3cedf966	0.029049587
90	0xbdb60c4c	-0.08889064
91	0xbd6eab57	-0.05826887
92	0x3de9e231	0.11420096
93	0x3cd012b0	0.025399536
94	0x3d78b8c0	0.060723066
95	0xbdab8cfe	-0.083765015
96	0xbd8373cf	-0.06418573
97	0x3d5436b4	0.05180998
98	0x3d4e1f2d	0.0503227
99	0xbc14f761	-0.009092183
100	0xbcda7601	-0.026667597
101	0xbc585e57	-0.013206086
102	0xbe19753b	-0.14986126
103	0x3dbfeaa9	0.0937093
104	0xbd5895ca	-0.052877225
105	0xbdc92c10	-0.098228574
106	0xbd34acab	-0.04410998
107	0xbd6c9fd1	-0.0577696
108	0x3d8fc028	0.07019073
109	0xbd822501	-0.06354714
110	0xbdb68ffc	-0.089141816
111	0x3c299025	0.010349308
112	0x3d843095	0.06454579
113	0xbdaa8501	-0.0832615
114	0x3cf93bd8	0.030424044
115	0xbcd631c4	-0.026146777
116	0x3c8ec5cd	0.017428303
117	0x3c593fad	0.01325981
118	0xbd2d4d9c	-0.042310342
119	0xbdca860b	-0.09888848
120	0x3d673075	0.056442697
121	0xbcc14241	-0.023591163
122	0x3da37d98	0.079829395
123	0xbce15659	-0.027506994
124	0x3d1ae810	0.03781897
125	0xbd4b17a1	-0.04958308
126	0x3caa05b0	0.020754665
127	0xbba57a63	-0.00504999
128	0xbb81af67	-0.003957677
129	0xbd727d9d	-0.059201825
130	0x3cafb5bb	0.02144896
131	0xbd3eb755	-0.046561558
132	0xbdcf5cef	-0.101251476
133	0xbd134114	-0.035950735
134	0x3d9935dd	0.07480977
135	0x3dabf3b1	0.0839609
136	0xbdb78c38	-0.089622915
137	0xbd97555d	-0.07389329
138	0xbcde3611	-0.02712539
139	0xbd722e14	-0.059125975
140	0xbdb7f6fe	-0.08982657
141	0x3d859c6e	0.06523977
142	0xbde2ba62	-0.11070706
143	0xbcc0900a	-0.023506183
144	0x39b2c2e7	0.0003409602
145	0xbd2043f6	-0.039127313
146	0x3de8ea5f	0.11372828
147	0xbd540d84	-0.051770702
148	0x3dd7c8b5	0.10536329
149	0x3c96a70e	0.018390205
150	0x3d842202	0.06451799
151	0xbd9cfb13	-0.07665076
152	0xbd1be9a1	-0.038064603
153	0xbcf86a55	-0.03032414
154	0xbd835b01	-0.06413842
155	0xbdef3906	-0.11680798
156	0xbc1d335f	-0.009594767
157	0xbd36665d	-0.044531215
158	0x3da1a2f2	0.078924075
159	0xbcc955d9	-0.024577068
160	0xbdd39e01	-0.10332871
161	0xbd884ab2	-0.06654872
162	0xbca3e9a3	-0.020008868
163	0xbc89ffc6	-0.016845595
164	0x3d993739	0.07481236
165	0xbc26c7e3	-0.010179493
166	0x3b694f3a	0.0035600201
167	0x3d073d98	0.033017725
168	0x3d33d7b3	0.04390688
169	0xbcd24a41	-0.025670173
170	0x3d92da13	0.071705006
171	0x3d866dac	0.06563887
172	0xbcead550	-0.028666168
173	0xbd1ce422	-0.038303502
174	0x3c55cf14	0.01304986
175	0x3dcfbe19	0.1014368
176	0x3dc4a9dc	0.096027106
177	0x3a085a3f	0.0005201436
178	0xbd83552d	-0.0641273
179	0x3d7bcb0c	0.061472937
180	0x3df1f122	0.118135706
181	0xbdc72776	-0.097243235
182	0xbd8a8d88	-0.06765276
183	0xbd82dc2b	-0.0638965
184	0x3d8b6b0b	0.06807526
185	0xbc2d25bb	-0.010568078
186	0xbd688fe5	-0.056777854
187	0x3d6426f8	0.055701226
188	0xbc96a262	-0.018387977
189	0xbd27f6e3	-0.041006934
190	0xbd05b853	-0.03264649
191	0xbd2ad14f	-0.04170352
192	0xbd8e2b08	-0.06941801
193	0xbd2212ef	-0.039568838
194	0x3ce59de5	0.028029392
195	0x3d288efc	0.041151986
196	0xbd650707	-0.055914905
197	0x3da9989a	0.082810596
198	0xbcd3d571	-0.025858613
199	0x3db26d3a	0.087122396
200	0x3d9ba694	0.07600132
201	0x3d2b5cec	0.041836664
202	0xbdf34224	-0.1187785
203	0x3bb2607f	0.005443632
204	0xbc8f11d9	-0.017464565
205	0x3d84324e	0.06454907
206	0x3ddd065f	0.10792231
207	0x3e0a6014	0.13513213
208	0xbd8cc2ca	-0.068730906
209	0x3c208083	0.009796265
210	0xbd432074	-0.04763837
211	0xbcf5fab5	-0.030026773
212	0xbd31e630	-0.043432415
213	0x3b79372d	0.0038027272
214	0xbd9d2529	-0.07673103
215	0x3d927a45	0.07152227
216	0xbd9b7e62	-0.07592465
217	0xbd8a6e3f	-0.06759309
218	0x3c0a0bc8	0.00842566
219	0xbdf2da36	-0.11858027
220	0x3db6bc35	0.089226164
221	0xbd99f2ad	-0.0751699
222	0x3c1cadfc	0.0095629655
223	0x3da2f889	0.079575606
224	0xbd1c6891	-0.03818566
225	0x3d67c3f6	0.056583367
226	0x3b1661f8	0.0022946578
227	0xbdf0bacf	-0.11754381
228	0xbe0f05ca	-0.13967052
229	0xbcf35080	-0.029701471
230	0xbcec3ae4	-0.028836675
231	0xbc802c5e	-0.015646156
232	0x3dd8cbdd	0.10585759
233	0x3c768db0	0.015048429
234	0x3d94239e	0.07233356
235	0x3da78fe0	0.08181739
236	0xbd39c36c	-0.045352384
237	0x3d84c40d	0.06482706
238	0xbdcd4604	-0.1002312
239	0xbdb2b0a2	-0.08725096
240	0x3c74bddd	0.014937845
241	0xbde72aca	-0.11287458
242	0xbc4f631c	-0.012657907
243	0x3d77ee50	0.060530007
244	0xbc01f86b	-0.007932763
245	0x3da9cbd8	0.08290833
246	0x3d236d08	0.039898902
247	0xbd8a4c6b	-0.06752857
248	0x3d86734f	0.06564962
249	0xbbd657c8	-0.006541226
250	0x3d58071f	0.052741166
251	0x3da56c7f	0.080773346
252	0x3d272012	0.04080207
253	0xbbb4168e	-0.005495853
254	0xbd25a322	-0.04043878
255	0x3d5cb13b	0.053879958

weight f4 [256, 512]
0	0xbd204fb9	-0.03913853
1	0x3be7fcaa	0.0070796805
2	0x3bc9a722	0.006153957
3	0x3dacd9d7	0.08439987
4	0x3d4f787a	0.050652005
5	0x3bec9154	0.007219473
6	0xbd3fac20	-0.04679501
7	0x3d8095d1	0.06278575
8	0x3c223088	0.009899266
9	0xbd5c50bd	-0.053787936
10	0x3c6f1f69	0.014594891
11	0x3dd1fc34	0.10253182
12	0xbd477b26	-0.048701428
13	0x3cd8c27d	0.026459927
14	0xbd239e39	-0.039945815
15	0xbdc49b24	-0.09599903
16	0x3d373969	0.044732485
17	0xbc3f37a8	-0.011670984
18	0x3ce31842	0.027721528
19	0x3ce81524	0.028330393
20	0x3b19a3ad	0.0023443506
21	0x3d8127a3	0.06306388
22	0x3d419383	0.04725982
23	0x3d68dfcb	0.05685405
24	0x3d917a1c	0.07103369
25	0xbda3c5cc	-0.07996711
26	0x3dd537f2	0.10411061
27	0xbc2cac91	-0.01053919
28	0x3d5f4841	0.054512266
29	0x3d836d06	0.06417279
30	0x3d96e83c	0.07368514
31	0xbb9c0223	-0.004760997
32	0xbd2f2207	-0.04275706
33	0x3c5b7378	0.013394229
34	0x3d13b211	0.03605849
35	0xbd17e390	-0.037082255
36	0x3d3cfd7a	0.04614017
37	0xbd2787fb	-0.040901165
38	0x3dd44f50	0.1036669
39	0xbdc25011	-0.09487928
40	0xbe01a6dc	-0.12661308
41	0x3dc36240	0.09540224
42	0x3d8216fa	0.06352039
43	0xbd605020	-0.054763913
44	0x3c0a8520	0.008454591
45	0x3d4f7e2b	0.050657433
46	0xbc9549b8	-0.018223628
47	0xbd642923	-0.055703294
48	0x3e037723	0.12838416
49	0x3dca2292	0.09869875
50	0x3d915df9	0.07098002
51	0xbdb7ddcf	-0.089778535
52	0x3d8ad1bc	0.06778285
53	0xbdc2f336	-0.09519045
54	0x3d38ef66	0.045150183
55	0x3d8443d8	0.06458253
56	0xbc7e6f41	-0.015529455
57	0xbb09140d	-0.0020916492
58	0x3d45cdb0	0.048291862
59	0xbd6e87b1	-0.058234874
60	0x3cc0c10b	0.02352955
61	0xbdcd4306	-0.10022549
62	0xbcd4237f	-0.025895832
63	0x3d1ed4d8	0.038777202
64	0x3c183e5f	0.009292214
65	0xbc14a527	-0.0090725785
66	0xba5c8131	-0.0008411585
67	0xba45d5c6	-0.00075468083
68	0xbd77c0d7	-0.06048664
69	0x3c9dbaf1	0.01925418
70	0x3c8a1424	0.016855307
71	0xbd0eb0bc	-0.034836516
72	0x3c9b8cda	0.018988062
73	0xba25606a	-0.00063086173
74	0x3d9c124f	0.076206796
75	0xbcb0ff9b	-0.021606257
76	0x3d2ac656	0.041693054
77	0xbc9b4af7	-0.018956644
78	0x3dc8cabe	0.09804295
79	0xbd02e5f9	-0.0319576
80	0xbb79b6c9	-0.0038103333
81	0xbda14e0c	-0.078762144
82	0x3d4f2615	0.050573427
83	0xbd9fd3cb	-0.07804068
84	0xbce99040	-0.028511167
85	0x3dc78a53	0.0974318
86	0x3ca7ca0e	0.02048209
87	0x3afb84c8	0.0019189352
88	0x3cf0f1f4	0.029412247
89	0x3be0cace	0.0068601137
90	0x3ddf3ab0	0.108998656
91	0xbca358a7	-0.019939734
92	0xbd86b27b	-0.06577011
93	0x3d914635	0.07093469
94	0xbc4928f9	-0.012277835
95	0xbc1ae4ae	-0.009453936
96	0xbd84c714	-0.06483284
97	0x3d8005c3	0.06251099
98	0xbd211d99	-0.039334867
99	0xbaff92c8	-0.00194987
100	0xbc6930b4	-0.014232803
101	0xbd4d8882	-0.050179012
102	0xbd71abd8	-0.059001774
103	0x3d1c5b97	0.038173284
104	0x3d1b3b82	0.037898548
105	0x3d1225cd	0.03568058
106	0xbccccd33	-0.02500019
107	0xbc5ccbf8	-0.013476364
108	0x3d0ecc9e	0.034863107
109	0xbd6d03c9	-0.057864938
110	0xbe273cce	-0.16331789
111	0xbb8c43c5	-0.0042805397
112	0xbd5b8cc1	-0.05360103
113	0x3be69eaf	0.0070379595
114	0xbccd633d	-0.025071735
115	0xbc897c8d	-0.016783023
116	0x3d0c16b0	0.034201324
117	0x3d68d89e	0.056847207
118	0x3dc487ba	0.095962
119	0xbd1abfd5	-0.0377806
120	0x3d65f5b9	0.056142543
121	0x3d722c61	0.059124354
122	0xbd3b0a42	-0.04566408
123	0xbcc9373f	-0.024562476
124	0x3e0348a1	0.12820674
125	0x3d3506ab	0.044195812
126	0xbb1cfe08	-0.0023955125
127	0xbcdb8f96	-0.026801866
128	0xbd4b6993	-0.04966123
129	0xbde93e3c	-0.113888234
130	0x3d7804fc	0.06055163
131	0xbc20fd36	-0.009825995
132	0x3d597604	0.053091064
133	0x3d9fab1c	0.077963084
134	0xbc67c689	-0.014146456
135	0xbdd81526	-0.10550909
136	0xbd0c476a	-0.034247793
137	0x3d8b3fad	0.067992546
138	0x3ca00b53	0.01953665
139	0x3d8b013c	0.06787345
140	0x3da7d9f0	0.08195865
141	0xbc3ec98c	-0.011644732
142	0x3da1a4ff	0.07892799
143	0xbcc6b176	-0.024254542
144	0x3dcc5332	0.09976806
145	0xbda39ff7	-0.07989495
146	0xbc4c1fc0	-0.012458742
147	0x3d4a8f90	0.049453318
148	0xbc9b10e1	-0.018928947
149	0x3da2d4ac	0.0795072
150	0x3cb5494a	0.022129674
151	0x3cc739e3	0.024319595
152	0xbd4de2eb	-0.050265234
153	0xbc852f86	-0.016258013
154	0x3d45e5c2	0.048314817
155	0xbcc77736	-0.024348836
156	0x3d678cfe	0.056530945
157	0xbd90a0ac	-0.07061896
158	0xbc9cd8ac	-0.019146286
159	0x3da0705d	0.078339316
160	0xbd9e9b64	-0.07744482
161	0x3c20e7a9	0.009820857
162	0x3cc9b2b8	0.024621353
163	0x3ccbbb93	0.024869716
164	0x3dd628c6	0.10456996
165	0xbbd762a5	-0.0065730386
166	0xbd0e8702	-0.034796722
167	0xbd9b305f	-0.075775854
168	0x3d26bcfa	0.040707566
169	0x3c9c6d18	0.019094989
170	0x3c1c1634	0.009526778
171	0x3d5c6d8a	0.053815402
172	0xbd48e96f	-0.049050745
173	0x3c312f5c	0.010814514
174	0x3d36ea68	0.04465714
175	0x3906a1b3	0.00012839473
176	0xbd225676	-0.039633237
177	0x3d3adcc4	0.045620695
178	0xbd2fd806	-0.042930625
179	0x3c9cf62b	0.01916035
180	0xbc282069	-0.010261633
181	0x3d42426b	0.047426622
182	0xbc39284c	-0.011301111
183	0x3cfd15e4	0.030894227
184	0xbac502dc	-0.0015030759
185	0x3d191c7e	0.037380688
186	0x3d39fd9e	0.045407884
187	0xbd8f872e	-0.07008205
188	0x3bfdb0e4	0.0077420343
189	0x3d31207e	0.043243878
190	0xbcb3aa26	-0.021931719
191	0xbde481d3	-0.111575745
192	0xbd43dcfa	-0.04781816
193	0x3d1c9552	0.03822834
194	0xbda27c7e	-0.07933901
195	0x3a358633	0.00069245993
196	0x3d123cb9	0.03570244
197	0x3d116c4e	0.035503678
198	0xbcb4e270	-0.02208063
199	0xbd0f6580	-0.035008907
200	0x3c47517d	0.012165424
201	0x3d5896b8	0.05287811
202	0xbc91da42	-0.017804269
203	0xbcbe9971	-0.023266526
204	0x3db0c25e	0.086308226
205	0x3d81b365	0.06333045
206	0xbcb4fd58	-0.02209346
207	0x3c92236e	0.01783916
208	0x3ce1446a	0.027498443
209	0xbc115ca4	-0.008872185
210	0xba6d6974	-0.0009056546
211	0x3c9dd875	0.019268254
212	0xbd815524	-0.063150674
213	0xbd4c5f34	-0.04989548
214	0x3d6db4b9	0.05803368
215	0xbc668b75	-0.014071335
216	0x3b557e88	0.003257664
217	0x3d12bf9e	0.03582727
218	0xbc2f4165	-0.010696744
219	0x3b1761a6	0.0023098974
220	0x3d07ec50	0.03318435
221	0x3cc9c856	0.02463166
222	0x3d9eb196	0.077487156
223	0xba3bf2ee	-0.0007169683
224	0x3d893d71	0.06701172
225	0xbadf397e	-0.0017030684
226	0x3d45ef90	0.048324168
227	0x3c0baada	0.008524621
228	0xbc278c8c	-0.01022638
229	0x3d171c60	0.036892295
230	0xbabeb840	-0.001455076
231	0x3c8edf20	0.017440379
232	0xbd2d4e93	-0.042311262
233	0xbd67bdec	-0.056577608
234	0xbe091c5c	-0.13389724
235	0xbcfa56e5	-0.030559013
236	0xbd63ffe7	-0.05566397
237	0xbc45294e	-0.012033774
238	0xbd02d39a	-0.03194008
239	0xbc09c4b7	-0.008408717
240	0xbc8e91ab	-0.017403444
241	0xbc0e9af5	-0.008703937
242	0x3ca023db	0.019548347
243	0xbc2d8772	-0.010591375
244	0xbd087b55	-0.033320744
245	0xbd8170dd	-0.06320355
246	0xbd6a3643	-0.057180654
247	0x3c7c81af	0.015411778
248	0xbd1fef2f	-0.039046463
249	0x3d02a4b1	0.031895343
250	0x3ce61ddf	0.028090416
251	0xbd63c2d7	-0.055605736
252	0xbd31ecff	-0.043438908
253	0xbbc8e656	-0.006130974
254	0x3d4cabc3	0.049968492
255	0x3c550657	0.013002

bias f4 [256]
0	0xbc3c49cd	-0.011492205
1	0xbd160c9f	-0.03663313
2	0xbd98c1e1	-0.074588545
3	0xbd8fb78f	-0.07017433
4	0x3bd6c1a0	0.0065538436
5	0xbd5f60ca	-0.054535665
6	0xbc4e741d	-0.012600926
7	0x3b116686	0.0022186353
8	0x3b5860bf	0.003301665
9	0x3c5dcdb3	0.013537812
10	0x3c9bdd65	0.019026468
11	0xbdd52627	-0.104076676
12	0xbda6786c	-0.081284374
13	0x3ca87f01	0.020568373
14	0xbdd21d74	-0.10259524
15	0x3bf8ac58	0.0075889044
16	0xbd1f585e	-0.038902633
17	0xbdaaac8a	-0.083336905
18	0x3d0943c8	0.033511907
19	0xbd9345ac	-0.07191023
20	0x3c8fb89d	0.017544085
21	0xbc93498f	-0.017979411
22	0xbc93c3ca	-0.018037695
23	0xbc358d91	-0.011081115
24	0xbd3c1668	-0.045919806
25	0xbda19993	-0.0789062
26	0xbcbdcf95	-0.023170272
27	0xbd4d3a05	-0.05010416
28	0xbda2d9a3	-0.07951667
29	0xbce25e2b	-0.027632793
30	0xbca09886	-0.019603979
31	0xbd562748	-0.052283555
32	0xbda3ef87	-0.080046706
33	0x3d83791e	0.06419586
34	0xbbddf514	-0.0067736004
35	0xbcbb46f1	-0.022860976
36	0xbc61e312	-0.013787048
37	0xba6fc57d	-0.00091465545
38	0xbd955ed5	-0.072934784
39	0xbcedf4cf	-0.029047398
40	0x3cd25968	0.025677398
41	0xbcd430e4	-0.02590222
42	0xbd9d9f78	-0.07696432
43	0xbd41a7cd	-0.047279168
44	0xbcc1f6a6	-0.023677181
45	0xbd06067f	-0.03272104
46	0xbd42469d	-0.047430623
47	0xbd19dab0	-0.037562072
48	0xbd8a3a70	-0.06749427
49	0xbd04af3b	-0.032393675
50	0xbcea317b	-0.028588047
51	0xbd55b9c2	-0.052179106
52	0xbc67e455	-0.01415356
53	0x3cad22ea	0.021134812
54	0xbb84a602	-0.00404811
55	0x3b43ab93	0.0029856905
56	0x3aae3fba	0.0013294138
57	0xbcb219fd	-0.021740908
58	0xbcc1e0a2	-0.023666684
59	0x3cc577ac	0.024104916
60	0xbd61dad7	-0.055140343
61	0xbc877805	-0.016536722
62	0xbb29f2cd	-0.0025932074
63	0xbdd753ca	-0.10514028
64	0x3be79433	0.0070672273
65	0xbca3d47b	-0.01999878
66	0xbc744733	-0.014909553
67	0xbd459d19	-0.048245523
68	0x3b791620	0.0038007572
69	0xbdaf5c07	-0.08562475
70	0xbbed6428	-0.0072446056
71	0xbc024d93	-0.007953065
72	0xbdb887e1	-0.09010292
73	0xbd936968	-0.07197839
74	0xbc232ecb	-0.009959887
75	0x3c7f920b	0.015598784
76	0xbc9c8698	-0.019107148
77	0xbda5b1e7	-0.08090573
78	0xbdcac27f	-0.099003784
79	0xbd8949d4	-0.06703535
80	0xbd120607	-0.03565028
81	0xbc7c8c7a	-0.015414352
82	0xbc6de4f8	-0.014519922
83	0xbd5ba34d	-0.053622533
84	0xbd7380dd	-0.059449065
85	0xbd63b4c4	-0.055592313
86	0xbd8c9280	-0.0686388
87	0xbd6b96e5	-0.05751695
88	0x3ca74034	0.020416357
89	0x3c29e770	0.01037012
90	0xba66f677	-0.000881053
91	0x3c642b89	0.013926395
92	0xbd36ee66	-0.04466095
93	0x3c0cfb0a	0.008604774
94	0x3b58f639	0.0033105745
95	0xbd84b801	-0.064804085
96	0x3d335c7f	0.043789383
97	0x3c34cb1d	0.011034754
98	0xbd782104	-0.06057836
99	0xbd82995d	-0.06376908
100	0xbcd5038e	-0.026002672
101	0xbd4adbd4	-0.04952605
102	0xbbcadaef	-0.0061906497
103	0xbb90fb26	-0.0044244705
104	0xbd89775e	-0.067122206
105	0xbdac860a	-0.084240034
106	0xbc866885	-0.01640726
107	0xbd407f2b	-0.046996277
108	0xbaeea5b8	-0.0018207347
109	0x3a4ab172	0.000773213
110	0xbb3019ed	-0.0026870922
111	0xbd8e47ae	-0.069472656
112	0x3c2c4101	0.010513545
113	0xbd3c8532	-0.046025462
114	0xbd891659	-0.066937156
115	0xbd8256a8	-0.063641846
116	0xbcf0e8f7	-0.029407961
117	0xbd2af1c7	-0.041734483
118	0xbc9572c2	-0.018243197
119	0xbcb81e24	-0.02247531
120	0x3c091db0	0.008368894
121	0x3c871e88	0.01649405
122	0xbd3be6ae	-0.04587429
123	0x3b3d60e6	0.0028896867
124	0xbc8cf297	-0.01720552
125	0xbda699e1	-0.08134819
126	0xbc2b1b31	-0.010443495
127	0x3d203e6c	0.03912203
128	0xbcfaa27e	-0.03059506
129	0xbd59a276	-0.05313345
130	0xbda759cd	-0.08171425
131	0xbd63be48	-0.05560139
132	0xbc960843	-0.018314486
133	0xbcbf49ae	-0.023350563
134	0xbcfa23a0	-0.030534565
135	0xbc83dd03	-0.016096598
136	0xbcbdce6e	-0.023169722
137	0xbd5be344	-0.053683534
138	0xbce55ddc	-0.027998857
139	0xbd4b3d99	-0.04961929
140	0xbd4cc3aa	-0.049991287
141	0xbca73610	-0.020411521
142	0xbd580b70	-0.052745283
143	0xbd0bc41d	-0.034122575
144	0xbcf90f9d	-0.030402953
145	0xbd8cdb85	-0.068778075
146	0xbcc8f698	-0.024531648
147	0xbd414e2d	-0.047193695
148	0xbb90ab71	-0.0044149687
149	0xbca59349	-0.020211833
150	0x3c1c6e26	0.009547746
151	0xbcabdde2	-0.020979825
152	0xbdc69ee1	-0.096982725
153	0xbd12ae60	-0.03581083
154	0x3b6711bc	0.0035258373
155	0xbd2c7d26	-0.04211154
156	0xbd30d62b	-0.043172996
157	0xbd4e0fa4	-0.050307885
158	0xbbf55f57	-0.007488172
159	0x3cd95873	0.026531434
160	0xbcc8b5e1	-0.02450079
161	0xbd4b25c9	-0.04959658
162	0xbd3a2a5d	-0.045450557
163	0xbb3f1432	-0.0029156324
164	0xbbcad524	-0.006189959
165	0xbd300a22	-0.042978413
166	0xbc18b86b	-0.009321312
167	0x3cd30218	0.025757834
168	0xbc888007	-0.01666261
169	0x3c01053d	0.007874784
170	0xbd94ad20	-0.072595835
171	0x3c0bddd9	0.008536779
172	0x3ca21f99	0.019790458
173	0xbc68516b	-0.014179568
174	0xbd13b2a1	-0.036059026
175	0x3d051175	0.03248735
176	0xbc997298	-0.0187314
177	0xbdaea949	-0.08528382
178	0xbc900539	-0.017580615
179	0xbdd10542	-0.10206081
180	0xbd6711c9	-0.056413446
181	0xbcfe94f4	-0.031076886
182	0x3ce666e6	0.028125238
183	0xbd331c2c	-0.04372804
184	0xbbccbdc5	-0.006248208
185	0x3da585e6	0.0808218
186	0xbb409e66	-0.0029391288
187	0x3b84202a	0.0040321546
188	0xbc3a357b	-0.01136529
189	0xbd795ffc	-0.060882553
190	0xbd050722	-0.032477506
191	0xbd5fa7d1	-0.0546034
192	0xbc59a723	-0.013284477
193	0xbd76fcdb	-0.060299736
194	0xbd4e5904	-0.05037786
195	0x3b1b128f	0.0023662185
196	0xbda354c3	-0.079751514
197	0xbcedc488	-0.029024377
198	0xbc61f92f	-0.01379232
199	0xbbb9a985	-0.0056659603
200	0xbd0b9815	-0.034080584
201	0x3bc074a8	0.0058732815
202	0xbd09eb77	-0.033671822
203	0xbdb5e40c	-0.08881387
204	0xbc02bb19	-0.007979178
205	0xbd880f48	-0.0664354
206	0xba942e0e	-0.0011305229
207	0x3d29afbd	0.041427363
208	0xbce9ca2f	-0.028538791
209	0xbda6fd9d	-0.08153842
210	0xbc2ce344	-0.010552231
211	0x3b24d562	0.00251516
212	0x3c3e0dcb	0.011599968
213	0x3cb99d6c	0.022658072
214	0xbd2d4b04	-0.04230787
215	0xbdb3d238	-0.087803304
216	0xbdc47234	-0.09592095
217	0xbd70b50c	-0.05876641
218	0xbccfa3b1	-0.025346609
219	0xbc3ff8fc	-0.011717077
220	0xbcbe66b8	-0.02324234
221	0xbd5b5f47	-0.05355766
222	0xbd02cd5d	-0.03193413
223	0xbd252908	-0.040322334
224	0xbe134125	-0.1438032
225	0xbd924269	-0.07141573
226	0xbdb4240a	-0.087959364
227	0x3c898e2f	0.016791431
228	0xbd9c827b	-0.07642075
229	0xbdad6a76	-0.084675714
230	0xbd020e16	-0.031751715
231	0xbd297102	-0.04136754
232	0xbcbebc82	-0.023283247
233	0xbb04337e	-0.0020172293
234	0xbc0fca24	-0.008776221
235	0xbd3aee28	-0.04563728
236	0xbd974f24	-0.07388142
237	0xbd414746	-0.047187112
238	0xbd0135e2	-0.031545527
239	0xbdba414a	-0.09094484
240	0xbcb781e9	-0.022400813
241	0x3c8834b8	0.0166267
242	0xbc9a9ac3	-0.018872624
243	0xbd1cdb70	-0.03829521
244	0x3cda19c1	0.026623609
245	0xbd9f1dd8	-0.07769364
246	0x3b8c548b	0.0042825392
247	0xbd901e31	-0.070370086
248	0xbd6dddbf	-0.0580728
249	0xbcd92d6d	-0.026510919
250	0xbd66c287	-0.05633786
251	0xbc8c144a	-0.017099518
252	0xbcf846ca	-0.030307192
253	0x3d2a338d	0.04155307
254	0xbd83346e	-0.064064845
255	0xbc31df0f	-0.010856404

weight f4 [128, 256]
0	0x3bbeb167	0.005819488
1	0x3db310e3	0.08743455
2	0x3a9bdff3	0.0011892304
3	0x3d8eaafc	0.069662064
4	0xbcbfdc5b	-0.023420503
5	0x3ce30e61	0.027716817
6	0xbcbefe2c	-0.023314558
7	0x3d2b4bb2	0.041820236
8	0x3d80ac0b	0.062828146
9	0x3d82c2a6	0.063847825
10	0xbd2a3995	-0.04155882
11	0xbcbfcc0e	-0.02341273
12	0xbd2fa9ae	-0.04288643
13	0x3cb26be0	0.021779954
14	0xbb78aa33	-0.0037943244
15	0xbc406cd4	-0.011744697
16	0x3d68f5f2	0.056875177
17	0x3cfa89e2	0.030583326
18	0xbc80c6f7	-0.015719874
19	0xbd50c028	-0.050964504
20	0xbc5a14c4	-0.013310615
21	0xbbe71612	-0.0070521915
22	0xbd4aa2a3	-0.04947151
23	0x3d422fe9	0.047408972
24	0x3ce7b383	0.02828384
25	0x3d93afd8	0.07211274
26	0xbc77af32	-0.015117453
27	0x3d0ddd6c	0.034634992
28	0xbd395e9d	-0.045256246
29	0x3caa2384	0.020768888
30	0xbd349ec0	-0.04409671
31	0xba24e4ce	-0.0006290198
32	0x3d0ea791	0.034827773
33	0x3d66b679	0.056326363
34	0x3ddef8a7	0.108872704
35	0x3cf6d393	0.030130183
36	0xbbdb44b2	-0.0066915387
37	0xbb874c5b	-0.0041289753
38	0x3d993b9f	0.07482075
39	0x3c8ecd23	0.017431801
40	0x3da7408c	0.08166608
41	0xbcc84896	-0.024448674
42	0xbb16ebd8	-0.0023028757
43	0xbd8db6cf	-0.069196336
44	0x3dc858b5	0.097825445
45	0xbd5bbe7c	-0.053648457
46	0x3c95d96c	0.018292151
47	0xbd6e0eef	-0.05811971
48	0x3d011aa0	0.031519532
49	0x3c71369d	0.0147224935
50	0xbd423a99	-0.047419164
51	0xbd0e06d9	-0.0346745
52	0x3d341e08	0.043973953
53	0x3ba67083	0.0050793304
54	0x3d6b810b	0.05749611
55	0xbc034f2d	-0.008014482
56	0xbd897067	-0.06710892
57	0x3db8180a	0.0898896
58	0x3bbc5577	0.005747493
59	0x3d184462	0.03717459
60	0x3d071f14	0.032988623
61	0x3d290ef9	0.041274045
62	0xbc43688a	-0.0119267795
63	0xbd8b450b	-0.06800278
64	0xbcd7400c	-0.026275657
65	0x3da9c770	0.08289993
66	0x3ccec36f	0.025239674
67	0xbc421fcc	-0.011848401
68	0xbd199205	-0.03749277
69	0x3d8bc8d0	0.06825411
70	0xbd3bc324	-0.045840397
71	0xbd6a6e71	-0.05723423
72	0xbd9d7461	-0.07688213
73	0x3d0b2e8b	0.033979934
74	0x3a92ef10	0.0011210162
75	0xbc5b74c3	-0.013394537
76	0x3d1dbc09	0.038509402
77	0x3d9a66c1	0.0753913
78	0xbcc61e90	-0.024184495
79	0xbdcb4573	-0.09925356
80	0x39879257	0.00025858238
81	0x3d1e06d0	0.038580716
82	0xbc7282a3	-0.014801654
83	0xbd1b1d34	-0.037869647
84	0xbd0f0889	-0.03492025
85	0x3c7c7218	0.015408061
86	0x3d083803	0.033256542
87	0x3d0df50f	0.034657534
88	0x3c833da9	0.016020613
89	0xbd9ffd94	-0.07812038
90	0x3d2e7f1b	0.042601686
91	0x3d21c892	0.03949792
92	0x3d4f33aa	0.05058638
93	0x3c3a06f3	0.011354196
94	0x3cc99bc2	0.024610404
95	0xbd6cf889	-0.05785421
96	0xbd49375c	-0.04912506
97	0x3d4d3942	0.050103433
98	0x3c89b40c	0.016809486
99	0xbbcb7bbc	-0.0062098186
100	0xbc9a7ea1	-0.01885921
101	0x3c7cb825	0.015424763
102	0xbd705a55	-0.058679897
103	0x3d602f5c	0.054732665
104	0x3c03cc04	0.008044247
105	0x3d0c6e20	0.03428471
106	0x3c03e428	0.008050002
107	0x3d7bacf6	0.061444245
108	0x3d06985f	0.032860156
109	0x3cb77b59	0.022397684
110	0x3c11f802	0.008909227
111	0x3d8f8402	0.070076
112	0xbcff42d5	-0.031159798
113	0x3d0c0cad	0.034191776
114	0xbd69dee1	-0.05709732
115	0x3d43c29d	0.04779302
116	0xba587ee1	-0.00082586525
117	0xbd6fbc8c	-0.05852942
118	0xbbe07c91	-0.006850787
119	0x3d34fb52	0.04418499
120	0x3ce51166	0.027962398
121	0x3c5281c9	0.012848326
122	0x3c98eb4e	0.01866689
123	0x3d7a8440	0.06116128
124	0xbd44dbaa	-0.04806105
125	0x3d6e4bac	0.058177635
126	0x3b055162	0.0020342697
127	0x3d82b072	0.063813105
128	0xbc7c9393	-0.015416044
129	0x3d736f15	0.059432108
130	0x3d990e5c	0.07473442
131	0x3b7b4e17	0.0038346106
132	0x3d3a8147	0.045533445
133	0xbb27bff4	-0.002559659
134	0x3d53ec4c	0.051739022
135	0xbd938b4e	-0.07204305
136	0x3da62c6f	0.08113944
137	0x3aad349d	0.0013214533
138	0xbdb36f54	-0.087614685
139	0x3daa1a00	0.0830574
140	0xbd2c4ffb	-0.042068463
141	0x3d418167	0.04724255
142	0xbd55b041	-0.052170042
143	0x3c29dc1e	0.010367421
144	0xbd14e270	-0.03634876
145	0x3ca2fce9	0.019895988
146	0x3b8400ff	0.004028439
147	0x3d4b4ba7	0.049632695
148	0x3c3a15f4	0.011357773
149	0x3c8e04c1	0.017336251
150	0x3c84b76e	0.016200747
151	0x3c9d3ca5	0.019193957
152	0x3d049b8a	0.032374896
153	0x3d511084	0.05104114
154	0x3d72de2f	0.059293922
155	0x3d0d9161	0.034562472
156	0x3cac801c	0.021057181
157	0x3d9d5d77	0.07683843
158	0x3bdc6424	0.006725805
159	0xbcc969e5	-0.024586627
160	0x3d3cabfa	0.046062447
161	0x3db4b397	0.088233165
162	0xbc405de5	-0.011741136
163	0xbd117a17	-0.035516825
164	0x3d63fd91	0.05566174
165	0xbc6e1658	-0.014531694
166	0xbc4f731c	-0.012661722
167	0xbc137df4	-0.0090021975
168	0x3cc25f8a	0.023727197
169	0xbd89e4f2	-0.06733121
170	0x3a0f2349	0.0005460275
171	0xbd39aeab	-0.045332592
172	0x3c921b95	0.017835418
173	0xbc34e267	-0.011040307
174	0xbd9d5c32	-0.076836005
175	0x3db8af46	0.09017806
176	0x3d7937f9	0.060844395
177	0x3d12b9db	0.035821777
178	0x3d77ec47	0.060528066
179	0x3ced292f	0.028950302
180	0x3d534c25	0.05158629
181	0xbd258628	-0.040411144
182	0x3b840d52	0.004029908
183	0x3dab3b88	0.08360964
184	0xbd310d73	-0.043225717
185	0xbcf81129	-0.03028162
186	0x3d2cabec	0.042156145
187	0xbc82b521	-0.01595551
188	0xbbf6ec53	-0.0075354963
189	0x3d53f982	0.05175162
190	0x3d6b59f6	0.05745884
191	0xbcb4c6d5	-0.022067467
192	0x3d645d1a	0.05575285
193	0x3d3a8a70	0.04554218
194	0xbcfd690c	-0.03093388
195	0x3d06046a	0.032719053
196	0x3c3060dc	0.010765281
197	0x3c779257	0.015110574
198	0x3db3e406	0.087837264
199	0x3da2b996	0.07945554
200	0x3dfd576a	0.123701885
201	0x3da6ecf9	0.08150668
202	0x3d2b3449	0.04179791
203	0x3946245a	0.00018896293
204	0xbd619e2e	-0.055082493
205	0x3d4ac0f4	0.04950042
206	0xbdc2069f	-0.09473919
207	0xbd64128f	-0.05568176
208	0xbc34b6cc	-0.01102991
209	0x3cef5769	0.029216485
210	0x3d9e9018	0.077423275
211	0xbdb91ce6	-0.09038715
212	0xbc7a3d92	-0.015273469
213	0x3e073c2f	0.13206552
214	0x3cb42c7c	0.021993868
215	0x3d0d1715	0.03444584
216	0x3bbed31e	0.005823507
217	0xbc1320ea	-0.008980015
218	0x3d309eb7	0.043120112
219	0x3d5741be	0.05255293
220	0x3daf3476	0.08554928
221	0xbc94458e	-0.018099573
222	0x3cd31b40	0.02576983
223	0xbdc61094	-0.09671131
224	0x3ca041e0	0.019562662
225	0x3c2fd7d4	0.01073261
226	0x3c65a885	0.014017229
227	0xbd15590c	-0.036461875
228	0x3d78bb54	0.060725525
229	0xbd4e50d7	-0.050370064
230	0xbcc1f6ae	-0.023677196
231	0x3a9e7523	0.0012089353
232	0x3c8c7ace	0.017148402
233	0x3deb253d	0.11481712
234	0x3d3315b3	0.043721866
235	0x3e097302	0.13422778
236	0xbd031e9d	-0.032011617
237	0xbd2dcf19	-0.04243383
238	0x3d3f0148	0.04663208
239	0xbd1a0770	-0.03760475
240	0x3d855660	0.06510615
241	0x3d2ef5c5	0.042714853
242	0x3d6831fe	0.0566883
243	0x3cf15778	0.029460654
244	0xbd2e7cf8	-0.04259965
245	0x3d9c7a91	0.07640565
246	0xbbacf4db	-0.0052782125
247	0x3d1af3c2	0.03783012
248	0xbcf35f94	-0.029708661
249	0x3d4c3210	0.04985243
250	0x3d6065e7	0.05478468
251	0x3d2b9f04	0.041899696
252	0x3db0dab7	0.086354665
253	0xbd213edf	-0.0393666
254	0xb7e5cfdf	-2.7395725e-05
255	0x3d02a040	0.031891108

bias f4 [128]
0	0xbd17ad19	-0.037030313
1	0xbb652a3b	-0.0034967798
2	0x3b0f0310	0.0021821894
3	0xbda934de	-0.08262037
4	0x3a369ba2	0.000696594
5	0xbc3d61bc	-0.011558946
6	0x3cfe03ce	0.031007674
7	0xbd51ac7b	-0.05118988
8	0xbd68368e	-0.056692652
9	0xbc908c39	-0.017644988
10	0xba9bd114	-0.0011887872
11	0xbdbf4e13	-0.09341063
12	0xbd043039	-0.03227255
13	0xbdcd10b5	-0.10012952
14	0xbd0b7491	-0.034046713
15	0xbd029a71	-0.031885568
16	0xbd1ecfcb	-0.038772386
17	0xbd4e45e3	-0.050359618
18	0xbd5327fe	-0.05155181
19	0xbd977fa6	-0.07397394
20	0x3dc1522f	0.094395034
21	0x3c90a33b	0.01765596
22	0xbd80c4c8	-0.06287533
23	0xbd887c34	-0.06664315
24	0xbd778ea3	-0.060438763
25	0x3c9a8b4d	0.018865252
26	0x3cfc6ca9	0.030813532
27	0x3d9cc433	0.076546095
28	0xbda96ede	-0.08273099
29	0x3d499702	0.049216278
30	0xbd3a3346	-0.045459054
31	0x3d7ae7f1	0.061256353
32	0xbd86d1f0	-0.06583011
33	0xbd9de833	-0.07710304
34	0x3d21a279	0.039461587
35	0xbbda8fec	-0.006669989
36	0xbda03916	-0.07823388
37	0x3cc79607	0.02436353
38	0xbd6ba5ab	-0.05753104
39	0xbca97be5	-0.02068896
40	0xbdbbc2cb	-0.09168013
41	0xbd04f262	-0.032457717
42	0xbd51b96f	-0.051202234
43	0x3cfec461	0.0310995
44	0xbd98fef6	-0.07470505
45	0xbb6b89a7	-0.0035940201
46	0xbd3ac6d4	-0.045599774
47	0x3d8c31bf	0.06845426
48	0xbd617e1f	-0.05505192
49	0xbd5fe68f	-0.054663237
50	0x3d5d1ae6	0.05398073
51	0xbce72e5f	-0.028220354
52	0x3b9fe933	0.0048800944
53	0xba7869a2	-0.000947619
54	0xbd654de2	-0.055982478
55	0xbcb70b3f	-0.02234423
56	0x3dd9385b	0.10606452
57	0xbdb066d8	-0.08613366
58	0xbd25fd1e	-0.040524594
59	0xbddfe08f	-0.10931503
60	0xbb18b966	-0.0023303865
61	0xbcbd4e4a	-0.02310862
62	0xbc922a9e	-0.017842587
63	0x3da92abe	0.082601056
64	0xbd4f13d5	-0.050556023
65	0xbd8b83c6	-0.06812243
66	0xbcd9c38c	-0.026582502
67	0xbcef8fd8	-0.029243395
68	0x3afe7418	0.0019413261
69	0x3cbdcb77	0.023168309
70	0x3c640fc0	0.013919771
71	0x3d24a90c	0.04020028
72	0x3d5cefea	0.053939737
73	0xbdb4e6e9	-0.08833105
74	0xbd05d9d0	-0.032678425
75	0xbd407aa0	-0.046991944
76	0xbcfb1c53	-0.030653154
77	0xbdb9d9b8	-0.0907473
78	0x3d637273	0.05552907
79	0xbc91e4df	-0.01780933
80	0xbd2e07cc	-0.042487904
81	0x3d528505	0.05139639
82	0xbdb3c7a9	-0.087783165
83	0x3d448b3d	0.04798435
84	0x3dcc9231	0.09988821
85	0xbdd632eb	-0.104589306
86	0xbbba0e16	-0.0056779487
87	0x3b642dd1	0.0034817348
88	0x3d8662e4	0.06561831
89	0xbd5ac93c	-0.05341457
90	0xbc9444fa	-0.018099297
91	0xba27308b	-0.0006377778
92	0xbd4529cf	-0.048135575
93	0xbd759a00	-0.05996132
94	0x3d59bd15	0.05315884
95	0x3c24dbc3	0.010062161
96	0xbd99f428	-0.07517272
97	0xbd611113	-0.054947924
98	0xbdb324c5	-0.087472476
99	0xbdbc39e5	-0.0919073
100	0xbda38de8	-0.07986051
101	0xbd9ccc0a	-0.07656105
102	0xbd2cf4bb	-0.04222558
103	0x3abf838e	0.001461135
104	0x3a867ccb	0.001026058
105	0xbd51d5d9	-0.05122933
106	0xbd83d808	-0.06437689
107	0x3c3ab39a	0.011395359
108	0xbb5da747	-0.003382163
109	0xbd6101d5	-0.054933388
110	0x37dbd2c0	2.6204973e-05
111	0xbcece0a7	-0.028915716
112	0x3d22c7ba	0.039741255
113	0x3d377efd	0.04479884
114	0x3cb3b611	0.021937402
115	0xbdd60f78	-0.10452169
116	0x3d7bb1a7	0.06144872
117	0xbbba1374	-0.0056785885
118	0xbd17cf22	-0.03706277
119	0x3dd536f5	0.10410873
120	0xbd0e3cc6	-0.034725927
121	0x3d8b6d0f	0.06807911
122	0xbd4e0805	-0.050300617
123	0x3cdc79dc	0.026913576
124	0xbcb60329	-0.022218304
125	0xbdbe245d	-0.092842795
126	0xbcf392e6	-0.029733133
127	0x3d8bf0e0	0.06833053

weight f4 [24, 128]
0	0xbd10e147	-0.03537109
1	0xbba24ce1	-0.0049530123
2	0x3cba543b	0.022745242
3	0xbd91b4f4	-0.07114592
4	0x3cad3bd0	0.021146685
5	0xbd624d35	-0.05524941
6	0x3d03ec93	0.032208037
7	0x3d8b3bb8	0.067985
8	0xbd1fb2a2	-0.038988717
9	0xbd3d836b	-0.046267908
10	0xbdad2719	-0.08454723
11	0xbda97fd3	-0.08276334
12	0xbd5dd7af	-0.05416077
13	0x3d4dcbc1	0.050243143
14	0xbc3aa05a	-0.01139077
15	0x3ccd3524	0.025049753
16	0x3c09b96b	0.0084060235
17	0xbdd01e87	-0.10162073
18	0xbcb3f3ff	-0.021966932
19	0xbd1f9f0c	-0.03897004
20	0xbc8f6868	-0.01750584
21	0x3c6b4968	0.014360763
22	0xbd7b6046	-0.06137111
23	0x3b09f0ea	0.0021048137
24	0x3d89e6ea	0.067334965
25	0xbdc80523	-0.09766605
26	0xbd023560	-0.031789184
27	0xbcd2615d	-0.025681192
28	0xbd8951f2	-0.06705083
29	0xbc5f5337	-0.01363068
30	0xbc350300	-0.011048079
31	0x3d3412e9	0.043963347
32	0x3d5ba9d2	0.05362875
33	0xbc7fdaee	-0.015616162
34	0xbcffa392	-0.031205926
35	0x3e00e628	0.12587798
36	0xbd3649ea	-0.044504084
37	0x3ce2e9ba	0.02769934
38	0xbd26b40c	-0.04069905
39	0x3ca0cdf0	0.019629449
40	0x3cb3d4ef	0.02195212
41	0xbd113b03	-0.03545667
42	0x3c69078d	0.014222992
43	0x3df11ce9	0.11773092
44	0xbd326447	-0.043552663
45	0x3c0b6c4a	0.008509705
46	0xbd8c95b0	-0.06864488
47	0x3dbaf9e6	0.091296956
48	0x3d098930	0.033578098
49	0xbba06ff9	-0.0048961607
50	0xbc7c5a61	-0.015402407
51	0x3c5e86fc	0.0135819875
52	0xbccd8cea	-0.025091607
53	0xbd8f8a24	-0.0700877
54	0xbd7f0e33	-0.0622694
55	0x3d039ec8	0.032133847
56	0x3df1f53f	0.11814355
57	0xbd24c77f	-0.040229317
58	0x3c039dfb	0.008033271
59	0xbc97aca8	-0.018514946
60	0x3d501262	0.05079878
61	0xbd04ca04	-0.03241922
62	0x3df81bea	0.12114699
63	0x3d3542f5	0.04425331
64	0x3d24fe8a	0.04028181
65	0x3d0fd8a4	0.035118714
66	0x3d61565e	0.055014007
67	0xbd4c1ae9	-0.04983035
68	0x3cf94b56	0.03043143
69	0xbcc12a98	-0.02357988
70	0xbcc04ebe	-0.023475047
71	0x3af21686	0.0018469847
72	0xbcbd83d3	-0.023134148
73	0xbc800f99	-0.015632438
74	0x3cb72592	0.022356782
75	0xbd86747d	-0.06565187
76	0xbd7d84f7	-0.061894383
77	0x3d42e42b	0.04758088
78	0x3d6917e6	0.056907557
79	0xbd9bca1d	-0.076069094
80	0x3d3968a3	0.045265805
81	0x3dadecbd	0.0849242
82	0x3d59655c	0.05307518
83	0x3d09a67e	0.033606045
84	0xbcd3bb3f	-0.025846122
85	0xbc651a88	-0.013983376
86	0x3ce71659	0.028208898
87	0x3b7ce0de	0.003858618
88	0x3c3a3427	0.011364973
89	0xbc6a64c3	-0.01430625
90	0x3cec5aa4	0.028851815
91	0x3ce027bc	0.027362697
92	0x3d193216	0.03740128
93	0x3cf2fa74	0.029660441
94	0x3d2a8fb8	0.041640967
95	0x3d7c896f	0.061654504
96	0x3c0c32cb	0.008557032
97	0xbd9a29aa	-0.07527478
98	0xbc7bb0f9	-0.015362018
99	0xbb90d582	-0.0044199834
100	0x3ce68655	0.028140226
101	0xbd18ae2b	-0.037275475
102	0x3d5a8575	0.05334993
103	0xbb65aa2d	-0.003504406
104	0x3d6007b4	0.054694846
105	0xbd1371a0	-0.035997033
106	0xbd0e564e	-0.034750275
107	0xbd781577	-0.060567345
108	0x3d164fd0	0.03669721
109	0xbb16c9ad	-0.0023008392
110	0xbd311de5	-0.0432414
111	0x3dc81619	0.0976984
112	0xbc081ad1	-0.008307175
113	0xbb70b75a	-0.003673038
114	0x3c07cd2e	0.008288665
115	0xbd5c761c	-0.053823575
116	0xbc31eeca	-0.010860154
117	0x3cd59098	0.026069924
118	0xbd55be30	-0.05218333
119	0xbd80d775	-0.06291095
120	0x3d23f2e6	0.040026568
121	0xbcfd9c20	-0.030958235
122	0x3d8c17e6	0.06840496
123	0xbcc2d2d6	-0.023782175
124	0xbc93bb74	-0.01803372
125	0xbd15d656	-0.03658136
126	0x3d8a88f4	0.06764403
127	0x3d940986	0.07228379
128	0xbd013c3a	-0.031551577
129	0x3ce2f968	0.027706817
130	0xbd4f3d7d	-0.05059575
131	0xbd760bf7	-0.060070004
132	0x3d1a9b5c	0.03774582
133	0xbd55ea47	-0.052225377
134	0x3d80e2da	0.062932685
135	0x3d923d0c	0.0714055
136	0x3d8d6222	0.06903483
137	0xbc9e1005	-0.019294748
138	0x3dd8b5a5	0.10581521
139	0x3c7ce3b6	0.01543515
140	0x3cd79221	0.026314797
141	0xbccba4c5	-0.024858842
142	0x3cc4ef3a	0.024039853
143	0xbcc8406c	-0.024444781
144	0xbdd2e0c1	-0.10296775
145	0xbd1f334a	-0.038867272
146	0xbd2b67cb	-0.04184703
147	0x3c8fcfe0	0.017555177
148	0x3cec1b61	0.028821649
149	0xbd623a8e	-0.055231623
150	0xbd1ce690	-0.03830582
151	0x3c813fb2	0.015777443
152	0x3db6f25c	0.08932945
153	0xbcaf816e	-0.021424022
154	0xba73ca73	-0.00092998816
155	0x3dc4cc00	0.096092224
156	0xbce19120	-0.027535021
157	0xbccae928	-0.02476938
158	0x3d0a606d	0.033783365
159	0x3b69b723	0.0035662137
160	0x3d8960b4	0.06707898
161	0x3d2e6932	0.04258079
162	0x3caab856	0.020839851
163	0x3d750691	0.059820715
164	0xbda5c79f	-0.08094715
165	0x3d85da9d	0.06535838
166	0xbd27539d	-0.040851224
167	0x3cd5a834	0.026081182
168	0xbcdf569b	-0.027262976
169	0xbcde4067	-0.027130319
170	0xbc9506a0	-0.018191636
171	0xbdc35060	-0.09536815
172	0xbcccf8d4	-0.025020994
173	0x3c9b637c	0.018968336
174	0x3e06c7f3	0.13162212
175	0x3d40176a	0.04689733
176	0xbd714ad8	-0.058909267
177	0xba564235	-0.0008173318
178	0xbd114b46	-0.035472177
179	0x3d9bf33b	0.07614752
180	0x3d166a5c	0.036722526
181	0xbcc93986	-0.024563562
182	0xbd99dfcc	-0.07513389
183	0xbbdfe0a9	-0.0068322015
184	0xbcc2913c	-0.023750894
185	0xbcf95369	-0.03043528
186	0xbdb438f6	-0.08799927
187	0x3c959395	0.01825885
188	0x3cb5b3e0	0.022180498
189	0xbd382843	-0.04496027
190	0x3cc05b38	0.023480996
191	0x3c56757c	0.013089534
192	0xbc9a9c73	-0.018873429
193	0x3c0ad0e2	0.008472653
194	0xbd7702ad	-0.060305286
195	0xbd208eba	-0.039198615
196	0xbac3032b	-0.0014878263
197	0xbd5c1945	-0.053735036
198	0xbd6ca6de	-0.057776324
199	0xbc8e83c4	-0.017396815
200	0x3d4a757b	0.049428444
201	0xbc31def4	-0.010856379
202	0x3c271978	0.010198943
203	0x3c2d75ab	0.010587136
204	0x3cbc9f4f	0.023025183
205	0xbd2648ba	-0.0405967
206	0x3cba14ba	0.022714961
207	0x3d38262f	0.04495829
208	0x3c5fbf69	0.013656476
209	0x3b74667e	0.0037292535
210	0xbc6f3c53	-0.014601785
211	0x3d93f263	0.07223966
212	0x3cd00e7c	0.025397532
213	0xbd93f040	-0.072235584
214	0x3d6a2390	0.05716282
215	0xbd27068d	-0.04077773
216	0x3daff663	0.085919164
217	0x3d66d844	0.05635859
218	0xbb4bf7db	-0.0031123075
219	0x3db8239f	0.08991169
220	0x3d057e04	0.03259088
221	0x3d82774e	0.06370412
222	0xbdeb3971	-0.114855655
223	0xbb309759	-0.002694568
224	0x3cf7a0ca	0.030228037
225	0x3bdc157b	0.006716428
226	0x3d7ac4d2	0.06122286
227	0x3c4567be	0.01204866
228	0x3d884b05	0.06654934
229	0xbd4da18b	-0.050202888
230	0xbd03f2ad	-0.032213856
231	0xbcd9d6e8	-0.026591733
232	0x3be7a010	0.0070686415
233	0xbc5bd12c	-0.01341657
234	0xbc9d2da2	-0.019186798
235	0x3d19c554	0.037541702
236	0xbc368459	-0.011139953
237	0xbc453581	-0.012036682
238	0xbd0c97e3	-0.034324538
239	0x3cda52b5	0.026650766
240	0x3cf823ad	0.030290449
241	0xbc593cb4	-0.013259102
242	0x3c5896ae	0.013219519
243	0xbc06c483	-0.008225563
244	0x3ce7f95f	0.028317152
245	0xbd5181d6	-0.05114921
246	0xbb952a12	-0.0045521343
247	0xbaf03a57	-0.0018327934
248	0x3d67c728	0.056586415
249	0xbc8f6393	-0.017503535
250	0x3c12984b	0.008947442
251	0x3d3b5d64	0.04574336
252	0xbd319ed8	-0.043364376
253	0x3d78a7ac	0.06070678
254	0xbcbd828b	-0.023133537
255	0x3cc91f9d	0.024551207

bias f4 [24]
0	0xbc9e6835	-0.0193368
1	0xbd5ce9e7	-0.053934004
2	0x3dae7fc5	0.08520464
3	0xbc5472b1	-0.012966798
4	0x3d531be4	0.05154027
5	0x3b74642e	0.0037291157
6	0x3dd73df5	0.10509864
7	0xbd467f60	-0.048461318
8	0xbb5905c5	-0.0033115011
9	0x3d127129	0.03575245
10	0x3de01f54	0.10943475
11	0x3c55efc8	0.013057657
12	0xbd3c1944	-0.045922533
13	0x3d78d0a0	0.060745835
14	0x3dcceacf	0.10005724
15	0x3c1b5496	0.009480616
16	0x3d8a032d	0.06738887
17	0x3db16e02	0.086635605
18	0x3ce67785	0.028133163
19	0x3cbc6d26	0.023001265
20	0x3d9f9113	0.077913426
21	0x3d6786a2	0.05652488
22	0x3d89932c	0.06717524
23	0x3defdba3	0.11711814
